model_weights.pt (torch_old, 126408 bytes, 9 tensors)

fc1.mu f4 [100, 49]
0	0x3dc1c78c	0.09461889
1	0xbb774cb8	-0.0037734937
2	0xbd2a0cf8	-0.041516274
3	0xbeaf726c	-0.34266984
4	0x3f6b8c30	0.92010784
5	0xbef17bc6	-0.47164744
6	0x3f5221b8	0.820827
7	0x3d2035a2	0.03911365
8	0x3c3ea6e2	0.011636468
9	0xbcd41744	-0.02589
10	0x3c3d08ad	0.011537713
11	0xbeafdacd	-0.3434662
12	0xbebae69e	-0.36504072
13	0xbebf6cd4	-0.37387717
14	0xbeaa1682	-0.33220297
15	0xbeb17966	-0.34662932
16	0xbe9e8e9c	-0.30968177
17	0xbe7f89ff	-0.24954985
18	0xbed0ea41	-0.40803722
19	0xbfad3463	-1.3531612
20	0x3c8ca038	0.017166242
21	0xbba34298	-0.004982304
22	0x3c95641e	0.018236216
23	0xbf7fafd7	-0.99877685
24	0x3c2e226c	0.010628324
25	0xbbac98b1	-0.0052672257
26	0xbf4ab8af	-0.79188055
27	0x3dc7754a	0.09739168
28	0xbdac89de	-0.084247336
29	0x3ea01f0e	0.31273693
30	0xbe195e21	-0.14977314
31	0x3ecfdc18	0.40597606
32	0xbe10e996	-0.14151606
33	0x3eb871ef	0.36024424
34	0xbe9c6a43	-0.3054982
35	0xbd96c7c7	-0.07362323
36	0xbeaf17c3	-0.34197816
37	0xbeaef353	-0.34170017
38	0xbe7c79fb	-0.24655907
39	0x3dd376cc	0.10325393
40	0xbf309d63	-0.68990153
41	0xbe9f1524	-0.31070817
42	0xbed939f3	-0.42427024
43	0xbe8bae0f	-0.27281234
44	0xbcde2c37	-0.027120693
45	0xbdb80ac3	-0.08986428
46	0xbf76cb00	-0.96403503
47	0xbec49138	-0.38392043
48	0xbec536d8	-0.38518405
49	0x3dbdbeb2	0.09264888
50	0x3de010b0	0.10940683
51	0x3d207a71	0.03917927
52	0x3b49215a	0.0030690045
53	0xbea66b25	-0.3250362
54	0x3e4a8435	0.19776995
55	0xbeac7076	-0.3367955
56	0x3dbb87e6	0.0915678
57	0x3dfef7e8	0.12449628
58	0xbdd410fe	-0.103548035
59	0xbc558184	-0.013031367
60	0xbd757e30	-0.059934795
61	0xbd834935	-0.064104475
62	0xbd29e527	-0.041478302
63	0xbe233e1b	-0.1594166
64	0xbdf43661	-0.119244345
65	0xbd297c1f	-0.041378137
66	0x3dc27e51	0.09496749
67	0xbe113bc0	-0.14182949
68	0xbf026f0f	-0.5095071
69	0x3dbc7b6d	0.09203229
70	0x3d9f040a	0.07764442
71	0xbd305905	-0.043053646
72	0x3f471fee	0.77783096
73	0x3e17030d	0.14747258
74	0x3e0636f8	0.13106906
75	0x3ea8bf2e	0.3295836
76	0x3b62e1e3	0.0034619502
77	0xbd44245e	-0.047886245
78	0xbdd40d96	-0.10354154
79	0x3e2950c6	0.16534719
80	0xbe1bcf54	-0.15215808
81	0x3e8e6db8	0.27818084
82	0xbdf40209	-0.11914451
83	0xbd0b02ea	-0.033938326
84	0x3e96cf62	0.29455096
85	0xbd813158	-0.0630824
86	0xbda7584f	-0.081711404
87	0x3e379bc6	0.17930517
88	0xbd99bb8f	-0.07506477
89	0x3d9d6b7b	0.07686516
90	0xbc9f3ce0	-0.019438207
91	0xbd135f52	-0.035979576
92	0x3c7dc1f6	0.015488138
93	0x3c17aa3c	0.009256896
94	0x3ccb06b3	0.024783468
95	0xbe332714	-0.17495376
96	0xbd9d6575	-0.07685367
97	0xbd5966d7	-0.05307659
98	0x3cce1764	0.025157638
99	0x3bc6690e	0.006055004
100	0xbd5bfffb	-0.05371092
101	0x3bef1eb1	0.00729736
102	0xbd48f6db	-0.049063545
103	0xbb87a305	-0.0041393065
104	0x3b95c3f7	0.00457048
105	0x3b9ebcc6	0.004844281
106	0x3b3e26b7	0.0029014775
107	0xbd5d5866	-0.05403938
108	0xbbb98072	-0.005661064
109	0xbd5b6abe	-0.053568594
110	0xbd6dcdbb	-0.058057528
111	0xbdd0ae2f	-0.10189473
112	0xbe1d8371	-0.15382172
113	0xbdb255ae	-0.08707748
114	0xbd16ac65	-0.036785502
115	0xbda2b707	-0.07945066
116	0xbd84368a	-0.06455715
117	0x3bbb7b92	0.005721518
118	0xbca620a3	-0.020279234
119	0x3b72c7ca	0.0037045353
120	0xbd874923	-0.066057466
121	0xbd6b5e8e	-0.05746322
122	0x3d6ce426	0.057834767
123	0x3cd07e94	0.025450982
124	0xbda0c5f7	-0.07850259
125	0x3c2eb35f	0.010662883
126	0x3cc4e355	0.024034182
127	0xbd30ea85	-0.043192405
128	0x3d2d2eff	0.042281147
129	0x3d046caa	0.032330193
130	0x3d73b8e0	0.059502482
131	0x3bb4caae	0.0055173254
132	0xbd0fe431	-0.03512973
133	0xbdc7aa45	-0.09749273
134	0xbd965104	-0.07339671
135	0xbd7135ba	-0.05888913
136	0xbd7314b8	-0.05934593
137	0x3c905954	0.01762072
138	0xbd3bc2fc	-0.04584025
139	0xbb937fa7	-0.0045013013
140	0xbc871201	-0.016488077
141	0xbd7e6081	-0.062103752
142	0xbdcf7fc9	-0.10131795
143	0xbd7d6b4b	-0.0618699
144	0xbd39d347	-0.045367505
145	0xbdc58a19	-0.09645481
146	0xbdb67e96	-0.08910863
147	0x3db0f22b	0.0863994
148	0x3b6e1508	0.0036328454
149	0xbd8222d0	-0.06354296
150	0x3c77cf81	0.015125156
151	0xbd449f86	-0.048003696
152	0x3d62fef0	0.05541891
153	0x3c4b7557	0.012418113
154	0x3d077fcc	0.03308086
155	0x3d51dce7	0.05123606
156	0xbc4deb22	-0.012568267
157	0xbc399c10	-0.011328712
158	0xbc770a8e	-0.0150782
159	0xbdd84f59	-0.10562009
160	0xbd7980eb	-0.06091396
161	0xbcce5f75	-0.025192002
162	0xbd255102	-0.04036046
163	0xbd2f4890	-0.04279381
164	0xbccd0160	-0.02502507
165	0xbd66dd76	-0.056363545
166	0xbce4f948	-0.027950898
167	0x3d8e76ee	0.06956278
168	0x3d456cf3	0.048199605
169	0xbc973119	-0.018456029
170	0x3ce2948d	0.027658725
171	0x3d8efa86	0.06981377
172	0x3d234da2	0.03986896
173	0x3d106dd5	0.035260994
174	0x3a805a53	0.0009792544
175	0x3d05b059	0.03263888
176	0x3cd71a6d	0.026257718
177	0x3dcc0a06	0.09962849
178	0xbbbfe6b0	-0.0058563575
179	0x3dda733c	0.106665105
180	0xbcc34b82	-0.023839716
181	0xbc6dd8ab	-0.01451699
182	0xbd11f43b	-0.035633307
183	0xbd7b55f2	-0.06136126
184	0xbc99d71a	-0.018779326
185	0xbce156dc	-0.027507238
186	0x3cd7fa06	0.026364338
187	0xbd5fab90	-0.054606974
188	0xbd35e54b	-0.044408124
189	0xbd365e2f	-0.044523414
190	0xbcd1d981	-0.02561641
191	0xbce4a2a6	-0.027909588
192	0xbcdc7c63	-0.026914781
193	0xbd55d8ab	-0.052208584
194	0xbd0b7ab9	-0.034052584
195	0xbdbf75fc	-0.093486756
196	0x3d9157b8	0.07096809
197	0xbd404795	-0.046943266
198	0xbd233250	-0.039842904
199	0x3dab5716	0.0836622
200	0xbd8f5fbb	-0.07000681
201	0xbe6d8c1b	-0.23197977
202	0xbd94fcb7	-0.07274764
203	0xbca88c16	-0.02057461
204	0xbce139ef	-0.027493445
205	0xbc8a6e03	-0.01689816
206	0xbbf693fe	-0.0075249663
207	0xbe8f5f35	-0.28002325
208	0xbdf8e50a	-0.12153061
209	0xbdee1e7e	-0.1162691
210	0xbe25804b	-0.16162221
211	0xbd844585	-0.06458572
212	0xbe87d2c7	-0.26527998
213	0xbecc6d54	-0.3992716
214	0xbe24e148	-0.16101563
215	0x40189ee0	2.384697
216	0x3cf0cc31	0.029394241
217	0x3c8b4390	0.01699999
218	0xbc8316e9	-0.016002135
219	0xbf6a7d2b	-0.9159724
220	0xbd789fab	-0.060699146
221	0xbdb10790	-0.086440206
222	0xbf466719	-0.77501065
223	0xbce4ef77	-0.027946217
224	0x3e11c1cb	0.14234082
225	0xbcd9b5e1	-0.026575984
226	0x3e4bf3b2	0.19917181
227	0xbdb87c49	-0.090080805
228	0xbd91b232	-0.07114066
229	0xbc91da94	-0.017804421
230	0xbe913871	-0.28363374
231	0xbf0b0426	-0.54303205
232	0xbe813830	-0.2523818
233	0xbd94ee7f	-0.07272052
234	0xbef38448	-0.4756186
235	0xbcefbaf6	-0.029263955
236	0x3e089ed5	0.1334184
237	0xbf09300f	-0.53588957
238	0xbec5dc50	-0.38644648
239	0xbef99614	-0.48747313
240	0xbce18058	-0.02752702
241	0xbe551de7	-0.20812188
242	0x3f904f30	1.1274166
243	0xbe05d919	-0.13071097
244	0xbe3b0f58	-0.18267572
245	0x3b81b651	0.0039585014
246	0x3d2a0dde	0.04151713
247	0xbdc4a89e	-0.09602474
248	0x3cf9b715	0.030482808
249	0x3d222885	0.039589424
250	0x3d0191e7	0.031633284
251	0x3c181f05	0.009284739
252	0x3d189d9b	0.03725968
253	0x3cd4c748	0.025973931
254	0xbcb0a5a3	-0.021563357
255	0xbc07595a	-0.008261049

fc1.log_sigma f4 [100, 49]
0	0xc0a54cf8	-5.1656456
1	0xc0a6f6f6	-5.2176466
2	0xc0a89496	-5.268138
3	0xc09ebeb2	-4.960778
4	0xc0a2cf10	-5.087776
5	0xc09f193f	-4.971832
6	0xc0a229e9	-5.067616
7	0xc0a6c916	-5.2120466
8	0xc0a6ca9c	-5.2122326
9	0xc0aba6a3	-5.3640914
10	0xc0a48cf0	-5.1422043
11	0xc0b28578	-5.5787926
12	0xc0b1e12d	-5.5587373
13	0xc0b1794f	-5.546058
14	0xc0b171f2	-5.5451593
15	0xc0b1eded	-5.5602937
16	0xc0b276cf	-5.577003
17	0xc0b0515b	-5.509931
18	0xc0b1c991	-5.5558553
19	0xc0a5030f	-5.1566234
20	0xc0a8ddd6	-5.2770796
21	0xc0a8da45	-5.276644
22	0xc0a6dd90	-5.214546
23	0xc0ac75e5	-5.3893914
24	0xc0b00c93	-5.501535
25	0xc0b00d9c	-5.5016613
26	0xc0aba6d8	-5.3641167
27	0xc0a6ecc3	-5.2164016
28	0xc0a6f478	-5.2173424
29	0xc0a0d06a	-5.025441
30	0xc0a0e000	-5.0273438
31	0xc0a0d3f8	-5.025875
32	0xc0a0d6c9	-5.026219
33	0xc0a0cf9e	-5.025344
34	0xc0b2b0d3	-5.584085
35	0xc0b0aa18	-5.5207634
36	0xc0b29ea7	-5.5818667
37	0xc0b2f156	-5.59196
38	0xc0acea74	-5.40362
39	0xc0a6c6db	-5.2117743
40	0xc0a1ecef	-5.0601726
41	0xc0b215b1	-5.565148
42	0xc0afa619	-5.4890256
43	0xc0b1cf16	-5.556529
44	0xc0acd079	-5.4004483
45	0xc0aaface	-5.343116
46	0xc0aa9ce0	-5.33165
47	0xc0ad4cb1	-5.4156117
48	0xc0ad79f2	-5.421136
49	0xc0a8e8ab	-5.278402
50	0xc0a4b2eb	-5.1468406
51	0xc0a93d61	-5.2887425
52	0xc0a42395	-5.1293435
53	0xc0a4bb12	-5.1478357
54	0xc0a41967	-5.128101
55	0xc0a4918a	-5.142766
56	0xc0a440f6	-5.13293
57	0xc0a440e5	-5.1329217
58	0xc0a42e72	-5.1306696
59	0xc0a71ffa	-5.2226534
60	0xc0a7baf2	-5.2415705
61	0xc0a95b85	-5.292422
62	0xc0a9a3b5	-5.301234
63	0xc0ab16f1	-5.3465505
64	0xc0aa30ea	-5.318471
65	0xc0a7d5e5	-5.24486
66	0xc0ac10b2	-5.377038
67	0xc0aa2fdf	-5.3183436
68	0xc0a2dad3	-5.089212
69	0xc0a3cf0f	-5.1190257
70	0xc0a3cf19	-5.1190305
71	0xc0a5d38a	-5.1820726
72	0xc09c1917	-4.8780627
73	0xc0a61a2c	-5.190695
74	0xc0a61a2a	-5.190694
75	0xc0a4a3fc	-5.1450176
76	0xc0a32835	-5.098658
77	0xc0a36722	-5.1063395
78	0xc0a3a8fa	-5.114377
79	0xc0a3adf4	-5.1149845
80	0xc0a3a9f8	-5.114498
81	0xc0a3a125	-5.113421
82	0xc0a3a7b1	-5.11422
83	0xc0a911fa	-5.2834444
84	0xc0a5f1ec	-5.1857815
85	0xc0a99c80	-5.300354
86	0xc0a9f7fc	-5.3115215
87	0xc0a92de3	-5.2868514
88	0xc0a354a7	-5.1040835
89	0xc0a06ba8	-5.0131416
90	0xc0a8e9df	-5.2785487
91	0xc0a6db94	-5.214304
92	0xc0a95cec	-5.292593
93	0xc0b013ff	-5.502441
94	0xc0a1617e	-5.043151
95	0xc0a22a90	-5.0676956
96	0xc0a6b740	-5.2098694
97	0xc0a64c14	-5.196787
98	0xc0a0d420	-5.025894
99	0xc0a0731e	-5.0140524
100	0xc0a1541d	-5.0415177
101	0xc09fe4a0	-4.9966583
102	0xc09fe4d8	-4.996685
103	0xc09ff8da	-4.9991274
104	0xc09fe56d	-4.996756
105	0xc0a0a074	-5.0195866
106	0xc0a0a074	-5.0195866
107	0xc0a1775b	-5.0458198
108	0xc0a3652a	-5.106099
109	0xc0a1050e	-5.031867
110	0xc0a17bb8	-5.0463524
111	0xc0a0ba1e	-5.0227194
112	0xc0a09852	-5.018594
113	0xc0a0f11f	-5.0294337
114	0xc0a13944	-5.0382404
115	0xc0a14cbf	-5.0406184
116	0xc0a0ab32	-5.020898
117	0xc09f81d3	-4.9845977
118	0xc0a0bbd2	-5.0229273
119	0xc0a0bbd2	-5.0229273
120	0xc0a102ef	-5.031608
121	0xc0a186a3	-5.047685
122	0xc0a0e325	-5.0277276
123	0xc0a0dd93	-5.0270476
124	0xc0a193f3	-5.04931
125	0xc0a0cc95	-5.0249734
126	0xc0a0ceaa	-5.0252275
127	0xc0a00a99	-5.0012937
128	0xc0a00990	-5.0011673
129	0xc0a00a77	-5.0012774
130	0xc0a009ca	-5.001195
131	0xc0a00a89	-5.001286
132	0xc0a12732	-5.0360346
133	0xc0a1c225	-5.0549493
134	0xc0a03b1d	-5.007216
135	0xc0a1ba05	-5.0539575
136	0xc0a15c96	-5.042552
137	0xc0a0d3e5	-5.025866
138	0xc0a135d4	-5.037821
139	0xc0a0ba60	-5.022751
140	0xc09ff6e0	-4.998886
141	0xc0a0e672	-5.0281305
142	0xc0a22460	-5.0669403
143	0xc0a199e5	-5.050036
144	0xc0a08f26	-5.017474
145	0xc0a092d0	-5.0179214
146	0xc0a101f5	-5.031489
147	0xc0a14ade	-5.040389
148	0xc09fc7db	-4.9931464
149	0xc0a0f8f5	-5.0303903
150	0xc0a0c0a4	-5.0235157
151	0xc0a0a732	-5.0204096
152	0xc0a0c4da	-5.0240297
153	0xc0a0af12	-5.021371
154	0xc0a03162	-5.006028
155	0xc0a03161	-5.0060277
156	0xc09fed33	-4.997705
157	0xc0a24a12	-5.071542
158	0xc0a04d6c	-5.009451
159	0xc0a079c9	-5.0148664
160	0xc0a0551e	-5.0103903
161	0xc0a071aa	-5.013875
162	0xc0a07ef5	-5.0154977
163	0xc0a06743	-5.012605
164	0xc0a0e6f2	-5.0281916
165	0xc0a05aa6	-5.0110655
166	0xc09fff68	-4.9999275
167	0xc0a0d87e	-5.0264273
168	0xc0a0d87c	-5.0264263
169	0xc0a153d1	-5.0414815
170	0xc09f07b7	-4.9696918
171	0xc0a10f05	-5.0330834
172	0xc0a11177	-5.033382
173	0xc09f0b0d	-4.970099
174	0xc0a04e81	-5.009583
175	0xc0a02349	-5.0043073
176	0xc0a0194e	-5.003089
177	0xc0a00703	-5.000856
178	0xc0a01b31	-5.0033193
179	0xc0a0195b	-5.003095
180	0xc0a00e94	-5.0017796
181	0xc0a075f2	-5.0143976
182	0xc0a16977	-5.044124
183	0xc0a081a8	-5.015827
184	0xc0a06a45	-5.0129724
185	0xc0a0da17	-5.0266223
186	0xc0a067c3	-5.012666
187	0xc09fab30	-4.989647
188	0xc0a02183	-5.004091
189	0xc0a0253d	-5.0045457
190	0xc09ff5fc	-4.9987774
191	0xc0a1ca08	-5.055912
192	0xc0a0d364	-5.0258045
193	0xc09f9ef6	-4.9881544
194	0xc0a0c3f9	-5.0239224
195	0xc09ff80c	-4.999029
196	0xc0a59d6f	-5.175468
197	0xc0a538ad	-5.1631684
198	0xc0a878c1	-5.2647405
199	0xc0a1b917	-5.053844
200	0xc0a1e658	-5.059368
201	0xc0a1bcef	-5.054313
202	0xc0a1f454	-5.061075
203	0xc0a509b9	-5.157437
204	0xc0a50500	-5.1568604
205	0xc0a3dd8d	-5.120795
206	0xc0a375ca	-5.1081285
207	0xc0ab6d12	-5.3570642
208	0xc0a7a597	-5.2389636
209	0xc0a969d1	-5.294167
210	0xc0a89b38	-5.2689476
211	0xc0a81b83	-5.2533584
212	0xc0aafef8	-5.343624
213	0xc0adf149	-5.4357038
214	0xc0a87664	-5.264452
215	0xc05df5d8	-3.46813
216	0xc0a64f6c	-5.197195
217	0xc0a64725	-5.1961846
218	0xc0a6c87f	-5.2119746
219	0xc0ad112b	-5.4083457
220	0xc0a8cbed	-5.2748933
221	0xc0a8ce0d	-5.2751527
222	0xc0aca40b	-5.395025
223	0xc0a5231e	-5.160537
224	0xc0a51808	-5.1591835
225	0xc0a1c9de	-5.055892
226	0xc0a1c70e	-5.0555487
227	0xc0a1cb6b	-5.0560813
228	0xc0a1c98b	-5.0558524
229	0xc0a1cadc	-5.056013
230	0xc0abe5de	-5.37181
231	0xc0b02794	-5.5048313
232	0xc0aab35b	-5.334394
233	0xc0a88066	-5.2656736
234	0xc0ad21b9	-5.4103665
235	0xc0a5507a	-5.166074
236	0xc0a03f4f	-5.007728
237	0xc0aec1a1	-5.4611363
238	0xc0a9f479	-5.311093
239	0xc0ae3888	-5.444401
240	0xc0a91392	-5.283639
241	0xc0a6f61b	-5.217542
242	0xc08e39aa	-4.444539
243	0xc0a2f4c8	-5.0923805
244	0xc0a7be89	-5.2420087
245	0xc09f34da	-4.9752016
246	0xc0a1a08e	-5.050849
247	0xc0a12f7e	-5.0370474
248	0xc0a1ceba	-5.056485
249	0xc0a1dcca	-5.058202
250	0xc0a1dba3	-5.058061
251	0xc0a1dd5f	-5.058273
252	0xc0a197f3	-5.0497985
253	0xc0a1c538	-5.0553246
254	0xc0a03a8f	-5.0071483
255	0xc0a1cf8a	-5.0565844

fc1.bias f4 [1, 100]
0	0xbecda3e7	-0.4016411
1	0xbd006505	-0.03134634
2	0xbd45b34c	-0.048266694
3	0xbd3e0dc4	-0.046399847
4	0xbe92cd69	-0.2867234
5	0xbdabf15d	-0.08395646
6	0xbd8be81b	-0.0683138
7	0xbe218b43	-0.1577578
8	0xbd6b4493	-0.057438444
9	0xbd18ba0f	-0.037286814
10	0xbddb2e48	-0.10702187
11	0xbda7c86a	-0.08192523
12	0xbc67a0ef	-0.014137491
13	0xbe1f52f2	-0.15558985
14	0xbdcd42d1	-0.1002251
15	0x3c852be6	0.016256284
16	0x3d9cda5e	0.07658838
17	0x3bea19bb	0.0071441806
18	0xbd2b07ec	-0.0417556
19	0xbe8a3dda	-0.27000314
20	0xbcca4cda	-0.024694849
21	0x3cf3b58f	0.02974966
22	0xbe609d4b	-0.21935003
23	0x3eac0dfe	0.33604425
24	0xbef785a1	-0.48344138
25	0x3c0aca4b	0.008471082
26	0xbe1345be	-0.14382073
27	0xbdb3d2f8	-0.087804735
28	0x3dd06d1f	0.10177063
29	0x3d2bc271	0.04193348
30	0xbd72397e	-0.05913686
31	0x3dc18c91	0.09450639
32	0xbd49648b	-0.04916815
33	0xbe64742d	-0.22309943
34	0x3dc55d17	0.09636896
35	0xbd284486	-0.041080974
36	0xbee7139b	-0.45132145
37	0xbc580b58	-0.013186298
38	0xbd34f46f	-0.044178423
39	0xbdf6c86a	-0.12049945
40	0xbf3f17b1	-0.74645525
41	0xbd794fb5	-0.06086703
42	0xbd8d8914	-0.06910911
43	0xbe06e9d6	-0.13175139
44	0xbd8824c1	-0.06647635
45	0x3e40ecfa	0.188404
46	0xbd380703	-0.044928562
47	0xbd4cdb65	-0.05001392
48	0xbdedd986	-0.11613755
49	0xbd6b456d	-0.057439256
50	0xbd51e3e1	-0.051242713
51	0xbd6d0eb8	-0.057875365
52	0xbc9783d3	-0.018495476
53	0xbd8faee3	-0.07015779
54	0xbd8a7aae	-0.067616805
55	0xbe70f038	-0.23529136
56	0xbd84eee3	-0.064908765
57	0xbd976c18	-0.07393664
58	0xbd8e363d	-0.06943939
59	0xbd8dcf1d	-0.06924269
60	0xbdaf473b	-0.08558508
61	0xbd0032c3	-0.03129841
62	0xbd8cc00b	-0.06872567
63	0xbebaec07	-0.365082
64	0x3e14b96d	0.1452386
65	0xbe34ad8e	-0.17644331
66	0xbd5c5199	-0.053788755
67	0xbdae7276	-0.085179254
68	0xbd4e07c7	-0.050300386
69	0xbda0cf5f	-0.07852053
70	0xbdae075d	-0.08497498
71	0xbe243bee	-0.16038486
72	0xbde12e21	-0.109951265
73	0xbe2acb6c	-0.16679162
74	0x3e4ace41	0.19805242
75	0xbe8b49db	-0.27204785
76	0xbd65add8	-0.056073993
77	0x3dfd29da	0.12361498
78	0xbc840575	-0.016115883
79	0xbda82257	-0.08209675
80	0xbdb90610	-0.090343595
81	0xbe006f07	-0.12542354
82	0x3d4e954d	0.050435353
83	0x3c8d7590	0.017267972
84	0xbef72a01	-0.48274234
85	0x3f69ad07	0.91279644
86	0xbe3894ef	-0.18025564
87	0x3f0fa881	0.5611649
88	0xbec3eded	-0.3826746
89	0xbd5e992d	-0.0543453
90	0xbe10d927	-0.14145337
91	0x3eee08c4	0.46491063
92	0xbdc23799	-0.09483261
93	0xbe738f95	-0.23785241
94	0xbd5393ea	-0.051654734
95	0xbd9259ab	-0.07146009
96	0x3e672fef	0.22576879
97	0xbddd214e	-0.10797368
98	0xbb9efb6c	-0.004851749
99	0xbcba8a09	-0.022770898

fc2.mu f4 [100, 100]
0	0xbca860bb	-0.020553937
1	0xbc900ca0	-0.017584145
2	0xbcb59185	-0.022164116
3	0xbb8458df	-0.0040389146
4	0xbcb52cb1	-0.022116037
5	0x3c3b0b46	0.011416262
6	0xbd16336b	-0.03667013
7	0xbcb69b05	-0.022290716
8	0xbc82daa8	-0.015973404
9	0x3c135cf3	0.008994329
10	0xbd906ff3	-0.070526026
11	0x3a054da3	0.0005085116
12	0xbc378725	-0.011201655
13	0xbcbd55d4	-0.023112215
14	0xbb086c11	-0.0020816366
15	0x3c2f19e4	0.010687325
16	0xbd462a5f	-0.048380252
17	0xbd65b478	-0.05608031
18	0xbd331f7b	-0.043731194
19	0xbd36c8d6	-0.044625126
20	0xbd568edb	-0.05238233
21	0xbb3b6ae5	-0.002859765
22	0xbc84ee55	-0.016226927
23	0xbcce9f6c	-0.025222503
24	0xbd7a2179	-0.06106708
25	0xbc63b57f	-0.0138982525
26	0x3c367d9e	0.011138348
27	0x3bdb3437	0.006689574
28	0x3c8f43b6	0.017488342
29	0x3d0d4097	0.034485426
30	0xbbdeed7d	-0.006803213
31	0xbd7c4d76	-0.06159731
32	0xbc5e832f	-0.013581081
33	0x3c53d82f	0.01292996
34	0xbd183830	-0.03716296
35	0xbd1a7322	-0.037707455
36	0xbac4addc	-0.0015005427
37	0xbc942f3d	-0.018088931
38	0xbcca5968	-0.024700835
39	0xbb829354	-0.003984848
40	0xbb60017f	-0.003418058
41	0xbc706aae	-0.014673872
42	0xbb9d3866	-0.004797983
43	0xbc43561a	-0.011922384
44	0xbc8c8879	-0.017154919
45	0xbd448102	-0.047974594
46	0x3c8375f0	0.016047448
47	0xbcbdaf72	-0.023154948
48	0xbc0a80bd	-0.008453545
49	0xbcb5fb10	-0.022214442
50	0x3bf3a655	0.0074356
51	0xbd368b93	-0.044566702
52	0x3c90fc4f	0.017698435
53	0x3c1b278d	0.009469879
54	0x3b08b6e6	0.002086097
55	0xbb47d842	-0.003049389
56	0xbb9b4484	-0.0047383923
57	0x3b991f14	0.0046728943
58	0x3ccfde72	0.025374625
59	0x3c69548a	0.014241347
60	0xbd0e3bbb	-0.034724932
61	0xbc6d313c	-0.01447707
62	0xbd2c6ef0	-0.042097986
63	0xbcd6291d	-0.026142651
64	0xbbdb6e01	-0.006696463
65	0xb89b73bb	-7.4125324e-05
66	0xbd015c30	-0.031582057
67	0xbcc14c63	-0.023595994
68	0xbd8b7fdd	-0.06811497
69	0xbc02daf5	-0.007986774
70	0xbc6884ea	-0.014191845
71	0xbd4f667e	-0.050634854
72	0xbcb4dc9f	-0.022077857
73	0xbd248e4e	-0.040174775
74	0xbcc32fa4	-0.023826428
75	0xbd647b9d	-0.05578195
76	0xbd0068f9	-0.03135011
77	0xbca7cd6d	-0.020483697
78	0xbd9ce4b5	-0.0766081
79	0xbc8674c6	-0.016413104
80	0xbcb11fe0	-0.021621644
81	0xbd1e9d57	-0.03872427
82	0xbc7df7e3	-0.015500995
83	0xbcc89cf8	-0.024488911
84	0xbca9a218	-0.020707175
85	0xbd80cf57	-0.06289547
86	0xbc14d767	-0.009084559
87	0xbc573cdd	-0.0131370695
88	0xbc82dc74	-0.01597426
89	0xbbe0614f	-0.0068475376
90	0xbc9e09f9	-0.019291865
91	0xbcbedab9	-0.023297654
92	0xbc960a8c	-0.018315576
93	0xbbd36188	-0.0064508356
94	0x3cb9cb46	0.022679936
95	0x3bf3e2f1	0.007442825
96	0xbd86031e	-0.06543563
97	0x3c6513d8	0.013981782
98	0xbce7d369	-0.02829905
99	0xbd042b55	-0.032267887
100	0xbd395d53	-0.045255017
101	0xbc2e4b2a	-0.010638038
102	0x3c4b7046	0.012416905
103	0xbc09f24b	-0.008419584
104	0xbd9d1bbf	-0.07671308
105	0xbcc1518f	-0.02359846
106	0xbc9640c4	-0.01834143
107	0x3c560fd6	0.013065299
108	0x3a0cd603	0.00053724664
109	0xbc1d8456	-0.009614071
110	0xbd7a5126	-0.061112545
111	0xbd6eb193	-0.058274817
112	0x3cad13f5	0.02112768
113	0xbc4a33a5	-0.012341415
114	0xbd42f5b1	-0.04759759
115	0x3d0a3690	0.03374344
116	0xbd3c40a2	-0.045960076
117	0xbd4ea09a	-0.05044613
118	0xbca4dff5	-0.020126322
119	0xbdc6a9c4	-0.09700349
120	0x3ccf3ebb	0.025298467
121	0xbbcd9fc5	-0.0062751495
122	0xbd2c22b0	-0.042025268
123	0xbcab0169	-0.020874696
124	0xbd7ffea4	-0.062498704
125	0xbd4791df	-0.048723098
126	0xbbf5b7ff	-0.0074987407
127	0xbc805dab	-0.015669664
128	0x3bd101eb	0.0063784025
129	0xbc0bbe5f	-0.008529275
130	0x3d1c72b4	0.038195327
131	0xbd0a8e30	-0.033827007
132	0xbbd02b39	-0.006352809
133	0xbc81ebf2	-0.015859578
134	0xbd28045d	-0.041019786
135	0x3c362ca1	0.011119039
136	0xbc8bfd86	-0.017088663
137	0xbc60ac4e	-0.013712956
138	0xbc8e00b7	-0.017334325
139	0xbcc37eb2	-0.023864124
140	0xbd258a4a	-0.040415086
141	0xbcf875e7	-0.030329658
142	0xbc749d41	-0.01493007
143	0x3c782f36	0.015147975
144	0xbc61e11d	-0.013786581
145	0xbdb47f97	-0.08813398
146	0xbc204482	-0.009781959
147	0x3c8b02d4	0.016969122
148	0x3c1dd872	0.009634124
149	0xbcdb3c20	-0.026762068
150	0x3a2feb89	0.00067108177
151	0x3c810b97	0.015752597
152	0xbbee46e2	-0.0072716335
153	0xbd11dac1	-0.03560901
154	0xbcdec96a	-0.027195651
155	0xbd6d0247	-0.0578635
156	0xbcbe4b3f	-0.02322924
157	0xbb895084	-0.0041905064
158	0xbc7a3203	-0.015270713
159	0xbc4f0fd8	-0.012638055
160	0xbc1291d3	-0.0089459
161	0xbc8c450e	-0.017122772
162	0xbcb163eb	-0.02165409
163	0xbd4c5579	-0.0498862
164	0x3d474373	0.04864831
165	0xbbea282f	-0.0071459035
166	0xbc8cfe4d	-0.017211104
167	0x3d06f209	0.032945666
168	0x3d0c3387	0.034228828
169	0xbc11eb97	-0.008906267
170	0xbd91667d	-0.07099626
171	0x3c887541	0.016657474
172	0xbd470f47	-0.048598554
173	0xbd54c741	-0.051947836
174	0xbd9c3020	-0.076263666
175	0xbda90b4b	-0.08254107
176	0xbc776cb7	-0.015101603
177	0xbd240cc6	-0.040051244
178	0x3c6a30bb	0.014293845
179	0xbc17ca07	-0.009264476
180	0x3c135255	0.008991797
181	0xbcbe8321	-0.023255887
182	0xbd4e9f6c	-0.050445005
183	0xbc92ccde	-0.017919954
184	0xbc6b9acf	-0.014380171
185	0xb9493280	-0.00019187666
186	0x394ce364	0.00019539666
187	0xbbe9649b	-0.007122589
188	0x3c8e9d2d	0.017408932
189	0x3bc14888	0.005898539
190	0x3cbeedea	0.023306806
191	0xbd32c3f6	-0.043643914
192	0xbd471fe0	-0.048614383
193	0x3c82667a	0.015918005
194	0x3c8b8582	0.017031435
195	0xbc93792c	-0.018002115
196	0x3d2dc909	0.04242805
197	0xbd1d4d6b	-0.03840391
198	0x3bb03b1e	0.005378141
199	0xbb63e203	-0.0034772165
200	0xbd003e92	-0.03130967
201	0xbcdb2324	-0.026750155
202	0x3c988b20	0.018621027
203	0xbcabaedb	-0.020957401
204	0xbc16d432	-0.009205865
205	0x3b715924	0.0036826814
206	0xbc626588	-0.013818152
207	0xbcba28fb	-0.02272462
208	0xbc891863	-0.016735261
209	0xbcc01d5c	-0.0234515
210	0xbd166d8e	-0.036725573
211	0xbaecb50c	-0.0018059327
212	0x3c587e7e	0.013213752
213	0xbd04eaac	-0.032450363
214	0x3c530b3f	0.012881099
215	0x3c0c23db	0.0085534705
216	0xbcd0d5c3	-0.025492555
217	0xbd2bfd26	-0.041989468
218	0x3d1fa7e0	0.038978457
219	0xbe024522	-0.12721685
220	0x3bbf2cc2	0.005834193
221	0xbd3e6ad7	-0.04648861
222	0xbd123586	-0.035695575
223	0xbc892dee	-0.016745534
224	0xbd6eeec8	-0.05833319
225	0x3be2c4f4	0.0069204513
226	0xbd1b8518	-0.037968725
227	0xbd307b70	-0.04308647
228	0xbd04a8ea	-0.03238765
229	0xbcf83d2f	-0.030302612
230	0x3c250021	0.0100708315
231	0xbbac5dea	-0.005260219
232	0xbc3d2809	-0.01154519
233	0xbd2171f3	-0.03941531
234	0xbd00df2e	-0.03146284
235	0xbc3e5084	-0.011615876
236	0xbc8678ec	-0.016415082
237	0x3c9f9b2a	0.019483168
238	0xbbddeeae	-0.0067728376
239	0xbcb69fe1	-0.022293033
240	0x3c3cd988	0.011526473
241	0xbab7f5c9	-0.0014035042
242	0x3c581fe4	0.013191197
243	0x3bc2a82c	0.005940458
244	0xbbe7b2d7	-0.00707088
245	0xbd35a1d4	-0.044343784
246	0x3cec6f43	0.028861647
247	0x3cb32755	0.02186934
248	0x3cadf680	0.021235704
249	0xbc4bc9a1	-0.012438209
250	0x3cdbd4cc	0.026834868
251	0xbc04e1b5	-0.008110453
252	0x3c9bfa96	0.019040387
253	0xbced499b	-0.028965762
254	0xbc318bb0	-0.010836527
255	0xbd18b2ae	-0.037279777

fc2.log_sigma f4 [100, 100]
0	0xc0a0a803	-5.0205092
1	0xc0a0f6fa	-5.0301485
2	0xc0a00790	-5.000923
3	0xc0a04bbe	-5.009246
4	0xc0a09b7e	-5.018981
5	0xc0a09949	-5.0187116
6	0xc09fdf00	-4.9959717
7	0xc0a0ad78	-5.0211754
8	0xc09fdc44	-4.995638
9	0xc09f2228	-4.9729195
10	0xc0a1cd3b	-5.0563025
11	0xc0a05778	-5.0106773
12	0xc0a10400	-5.0317383
13	0xc0a15e0c	-5.0427303
14	0xc0a0430b	-5.008184
15	0xc0a0f0e8	-5.0294075
16	0xc09fd429	-4.9946485
17	0xc09fe367	-4.996509
18	0xc0a021cd	-5.004126
19	0xc0a0a664	-5.0203114
20	0xc0a05e86	-5.0115385
21	0xc0a044e2	-5.0084085
22	0xc0a111c9	-5.033421
23	0xc0a0de36	-5.0271254
24	0xc09fccfb	-4.993772
25	0xc0a0a0cd	-5.019629
26	0xc0a08aff	-5.0169673
27	0xc0a091f1	-5.017815
28	0xc09fa3db	-4.988752
29	0xc0a0f6c9	-5.030125
30	0xc0a064d2	-5.012307
31	0xc0a15813	-5.0420012
32	0xc0a1cc4f	-5.05619
33	0xc0a01111	-5.0020833
34	0xc0a0b234	-5.0217533
35	0xc0a05084	-5.0098286
36	0xc0a0bdec	-5.023184
37	0xc0a03401	-5.006348
38	0xc0a03e2e	-5.0075903
39	0xc09fc92a	-4.993306
40	0xc09f1639	-4.9714627
41	0xc0a09c03	-5.0190444
42	0xc0a02791	-5.00483
43	0xc0a12f8c	-5.037054
44	0xc0a149ca	-5.0402575
45	0xc0a0ffad	-5.0312104
46	0xc0a0c32c	-5.0238247
47	0xc0a0800c	-5.0156307
48	0xc0a037c7	-5.0068088
49	0xc0a01a72	-5.003228
50	0xc0a0affd	-5.021483
51	0xc09f8025	-4.9843926
52	0xc0a08316	-5.0160017
53	0xc09ff504	-4.998659
54	0xc0a075b4	-5.014368
55	0xc0a0abd5	-5.0209756
56	0xc0a1041a	-5.0317507
57	0xc0a00f39	-5.001858
58	0xc0a0eb4f	-5.028724
59	0xc0a07688	-5.014469
60	0xc0a0e72f	-5.0282207
61	0xc0a150ed	-5.0411286
62	0xc0a12a70	-5.0364304
63	0xc09fae15	-4.9900002
64	0xc0a08e68	-5.0173836
65	0xc0a0a82e	-5.0205297
66	0xc0a0737d	-5.0140977
67	0xc0a02113	-5.0040374
68	0xc0a0c244	-5.023714
69	0xc0a05465	-5.010302
70	0xc0a0d52c	-5.026022
71	0xc0a07b80	-5.0150757
72	0xc0a0a7fa	-5.020505
73	0xc0a1849a	-5.0474367
74	0xc0a0da5c	-5.026655
75	0xc0a1e3b9	-5.059048
76	0xc0a09b65	-5.018969
77	0xc0a03831	-5.0068593
78	0xc0a1610b	-5.043096
79	0xc0a15bd3	-5.042459
80	0xc0a16f31	-5.044823
81	0xc09ff4f5	-4.998652
82	0xc09f582e	-4.979514
83	0xc0a004c1	-5.0005803
84	0xc0a18d5b	-5.0485053
85	0xc0a1ffe2	-5.0624857
86	0xc0a09ea0	-5.0193634
87	0xc0a1a289	-5.0510907
88	0xc0a1d118	-5.056774
89	0xc0a0d0bf	-5.0254817
90	0xc0a1f724	-5.0614185
91	0xc0a1c852	-5.055703
92	0xc0a19810	-5.0498123
93	0xc09fbe70	-4.991997
94	0xc09fa45f	-4.988815
95	0xc0a0c3a5	-5.0238824
96	0xc0a1d6fa	-5.0574923
97	0xc0a01556	-5.0026045
98	0xc0a11347	-5.033603
99	0xc0a0e4a9	-5.0279126
100	0xc0a08547	-5.016269
101	0xc0a14b98	-5.0404778
102	0xc0a04b95	-5.0092263
103	0xc0a03944	-5.0069904
104	0xc0a1d4b8	-5.0572166
105	0xc09ffca3	-4.9995894
106	0xc0a04c81	-5.009339
107	0xc0a6bc4d	-5.210486
108	0xc0a049b3	-5.0089965
109	0xc0a00838	-5.0010033
110	0xc0a3c927	-5.1183047
111	0xc0a06b30	-5.0130844
112	0xc0a02db3	-5.0055785
113	0xc0a1b82f	-5.0537333
114	0xc0a01e73	-5.003717
115	0xc0a7887b	-5.23541
116	0xc0a41d09	-5.1285443
117	0xc0a167a8	-5.0439034
118	0xc09ffa94	-4.999338
119	0xc0a76501	-5.2310796
120	0xc0a0447d	-5.0083604
121	0xc09f3bd0	-4.9760513
122	0xc0a0efd4	-5.029276
123	0xc0a1f0ef	-5.060661
124	0xc0a2e3ce	-5.090308
125	0xc0a06e5c	-5.0134716
126	0xc0a06999	-5.0128903
127	0xc0a09784	-5.0184956
128	0xc0a42ebf	-5.1307063
129	0xc0a1bc93	-5.0542693
130	0xc0a0d793	-5.026315
131	0xc0a42f04	-5.130739
132	0xc0a1a139	-5.0509305
133	0xc0a02ff4	-5.0058537
134	0xc0a44d76	-5.1344557
135	0xc0a07d50	-5.015297
136	0xc0a0ce60	-5.0251923
137	0xc09fb22d	-4.9905
138	0xc0a0013d	-5.000151
139	0xc09fe742	-4.9969797
140	0xc09f2a2f	-4.9738994
141	0xc09fe9eb	-4.9973044
142	0xc09fdbd3	-4.995584
143	0xc0a14c85	-5.040591
144	0xc0a014b5	-5.0025277
145	0xc0a18c26	-5.048358
146	0xc0a107ca	-5.032201
147	0xc0a03f3a	-5.007718
148	0xc0a0734b	-5.014074
149	0xc0a041dc	-5.0080395
150	0xc0a081ba	-5.015836
151	0xc09fb1b3	-4.990442
152	0xc0a07836	-5.014674
153	0xc09fd62e	-4.994895
154	0xc0a3b27a	-5.1155367
155	0xc0a37be2	-5.1088724
156	0xc0a54343	-5.1644607
157	0xc0a0256a	-5.004567
158	0xc0a04a13	-5.0090423
159	0xc0a08c43	-5.017122
160	0xc09fff92	-4.9999475
161	0xc09fe1c0	-4.9963074
162	0xc0a057ad	-5.0107026
163	0xc0a34198	-5.101757
164	0xc0a4effd	-5.1542954
165	0xc0a26a88	-5.0755043
166	0xc0a0a2e6	-5.019885
167	0xc09fb49d	-4.9907975
168	0xc0a0343c	-5.0063763
169	0xc0a063c3	-5.012178
170	0xc0a29547	-5.0807223
171	0xc0a69f2e	-5.206931
172	0xc0a10974	-5.032404
173	0xc0a2cf54	-5.0878086
174	0xc0a643b0	-5.1957626
175	0xc0a2a4a4	-5.0825977
176	0xc09ff3e5	-4.9985223
177	0xc0a0dd54	-5.0270176
178	0xc0a02ac7	-5.005222
179	0xc0a0bbc6	-5.0229216
180	0xc0a05718	-5.0106316
181	0xc0a1b94d	-5.0538697
182	0xc0a03e39	-5.0075955
183	0xc09f77bd	-4.9833665
184	0xc0a05f5f	-5.011642
185	0xc0a1a507	-5.051395
186	0xc0a056b5	-5.0105844
187	0xc0a18671	-5.0476613
188	0xc0a0e8e6	-5.02843
189	0xc0a09b75	-5.0189767
190	0xc0ae12f6	-5.4398146
191	0xc09fe419	-4.996594
192	0xc0a16682	-5.043763
193	0xc09fb09e	-4.9903097
194	0xc0a02261	-5.0041966
195	0xc0a13819	-5.038098
196	0xc0a6e50a	-5.215459
197	0xc0a012f5	-5.002314
198	0xc0a092a2	-5.0178995
199	0xc0a02ac6	-5.0052214
200	0xc09ff0e1	-4.998154
201	0xc0a17b29	-5.046284
202	0xc0a0408a	-5.0078783
203	0xc0a05a93	-5.0110564
204	0xc0a00eb7	-5.0017962
205	0xc09fdb50	-4.9955215
206	0xc09fd8c6	-4.9952116
207	0xc0a0d7fc	-5.0263653
208	0xc09f9f85	-4.9882226
209	0xc0a0de2c	-5.0271206
210	0xc0a3ac83	-5.1148086
211	0xc0a06722	-5.0125895
212	0xc0a05f8d	-5.011664
213	0xc0a1070a	-5.0321093
214	0xc09ff7a8	-4.9989815
215	0xc0a08aaa	-5.016927
216	0xc0a0f39a	-5.0297365
217	0xc0a04e5a	-5.0095644
218	0xc0a04d98	-5.009472
219	0xc0a2c4b3	-5.086511
220	0xc0a0147f	-5.002502
221	0xc0a0b1ce	-5.0217047
222	0xc0a05552	-5.010415
223	0xc0a06a55	-5.01298
224	0xc0a29bf6	-5.081538
225	0xc0a053fa	-5.010251
226	0xc0a05da5	-5.011431
227	0xc0a014c6	-5.002536
228	0xc0a26f98	-5.0761223
229	0xc0a133ed	-5.0375886
230	0xc0a0b8cf	-5.0225596
231	0xc09e3ec9	-4.945164
232	0xc0a07aa8	-5.0149727
233	0xc09f1659	-4.971478
234	0xc0a079e3	-5.0148787
235	0xc0a01e46	-5.0036955
236	0xc09fe63c	-4.996855
237	0xc09f29c1	-4.973847
238	0xc09fcc79	-4.99371
239	0xc0a0360b	-5.006597
240	0xc09d992f	-4.924949
241	0xc09feeaa	-4.997884
242	0xc09f7145	-4.982577
243	0xc09f9678	-4.987118
244	0xc0a033b9	-5.006314
245	0xc0a30d85	-5.0954003
246	0xc0a0e0c3	-5.0274367
247	0xc09ffba4	-4.999468
248	0xc0a04c82	-5.0093393
249	0xc0a021cb	-5.004125
250	0xc0a08393	-5.0160613
251	0xc09f8e92	-4.9861536
252	0xc09f9696	-4.987132
253	0xc0a03ad0	-5.0071793
254	0xc0a0250c	-5.0045223
255	0xc0a1b66c	-5.0535183

fc2.bias f4 [1, 100]
0	0xbcad7e4d	-0.021178389
1	0xbc387723	-0.011258873
2	0xbc7d80fd	-0.015472648
3	0x3d25be63	0.04046477
4	0xbdb3dfb0	-0.087828994
5	0xbc993de4	-0.01870627
6	0xbd45519b	-0.04817353
7	0xbce1786f	-0.027523248
8	0xbd099af6	-0.033595048
9	0x3d9b2b87	0.075766616
10	0xbc814332	-0.015779112
11	0xbcca404e	-0.024688866
12	0xbccde398	-0.02513294
13	0xbcaaaf46	-0.02083553
14	0xbc9fb048	-0.019493237
15	0x3c1ede68	0.0096965805
16	0xbd3583cb	-0.04431514
17	0xbc9d7c44	-0.019224294
18	0xbc9641b9	-0.018341886
19	0x3e9b3b83	0.3031884
20	0x3e9a0208	0.30079675
21	0x3edd8e44	0.43272603
22	0xbcd6093e	-0.026127454
23	0xbccca5b4	-0.024981357
24	0xbd6ddc0c	-0.05807118
25	0xbd06dfd1	-0.03292829
26	0xbd915644	-0.07096532
27	0xbcdf55fa	-0.027262677
28	0x3cf8b1e7	0.030358268
29	0x39ae0f28	0.00033199158
30	0xbd2ab4d2	-0.04167635
31	0xbd1f68be	-0.03891825
32	0xbd4d81f9	-0.05017278
33	0x3ebf4af3	0.3736187
34	0x3d8b3a42	0.06798221
35	0xbd0c6ddc	-0.034284458
36	0x3eb28f7c	0.34875095
37	0xbcbebe42	-0.023284081
38	0xbcb8a48a	-0.022539396
39	0xbc8f4e81	-0.017493488
40	0x3bd34280	0.0064471364
41	0xbc818ca9	-0.015814142
42	0xbd1142a7	-0.035463955
43	0x3dea5cd4	0.11443487
44	0xbc93b3eb	-0.018030128
45	0xbd0ea8b9	-0.034828875
46	0x3d886cad	0.06661353
47	0xbc8c2f2e	-0.01711234
48	0xbd2e184b	-0.042503636
49	0xbcc3cbae	-0.023900833
50	0xbc8e4967	-0.017368985
51	0x3f11ff01	0.5702973
52	0xbd43356d	-0.047658373
53	0x3dc71002	0.0971985
54	0xbcc8ce34	-0.024512388
55	0xba10ec99	-0.000552842
56	0x3e0e63c9	0.13905253
57	0x3dea72cf	0.11447679
58	0xbd87e865	-0.066361226
59	0x3e655db8	0.22399032
60	0xbd3f95c9	-0.046773706
61	0xbc5bbaa8	-0.013411202
62	0xbc65b6ac	-0.014020603
63	0xbcf66355	-0.030076662
64	0xbbf0c1dd	-0.007347329
65	0xbc8802b9	-0.01660286
66	0xbb97cd9d	-0.0046326653
67	0xbc92fcb4	-0.017942764
68	0xbce856b2	-0.028361652
69	0x3e4fd585	0.20296295
70	0x3bb27cc5	0.0054470026
71	0xbd2aec66	-0.041729353
72	0x3ea04ee4	0.3131019
73	0xbc832608	-0.016009346
74	0xbcbb2a5a	-0.022847343
75	0xbc71d7b0	-0.014760897
76	0xbbfa2b67	-0.0076345685
77	0xbdc71499	-0.097207256
78	0xbd1b491a	-0.037911512
79	0x3dd14500	0.10218239
80	0xbd613e7a	-0.054991223
81	0xbd5ed2b1	-0.05440015
82	0xbb625760	-0.0034536943
83	0xbd70cf98	-0.058791727
84	0xbd1edfc0	-0.038787603
85	0xbc40735d	-0.011746255
86	0x3e2e0d6b	0.16997306
87	0x3e654edd	0.22393365
88	0x3e106a71	0.14103104
89	0x3dd6e9c7	0.10493808
90	0x3adbe600	0.0016776919
91	0xbcfef1b3	-0.03112111
92	0xbd1fc030	-0.039001644
93	0xbca852f9	-0.020547377
94	0x3f80199d	1.0007817
95	0xbccfd716	-0.025371116
96	0xbd65813d	-0.056031454
97	0x3e7e9cb7	0.2486447
98	0xbd36ad95	-0.044599134
99	0x3e8a883a	0.27057058

fc3.mu f4 [6, 100]
0	0x3d149faa	0.03628508
1	0x3c703ac6	0.01466245
2	0xbc7220fa	-0.01477837
3	0xbc590ba0	-0.0132474005
4	0xbc17241e	-0.00922492
5	0xbc9ff120	-0.019524157
6	0xbb856306	-0.0040706424
7	0xbc9fe78c	-0.01951959
8	0xbcbeb695	-0.023280421
9	0x3c888dfb	0.016669264
10	0x3c3d54ac	0.011555832
11	0x3c016226	0.007896936
12	0xbca78a96	-0.020451825
13	0xbcb01ed2	-0.021499071
14	0x3bc9d88f	0.006159849
15	0x3a7018f0	0.00091589894
16	0x3c0b4598	0.008500479
17	0xbc712d1e	-0.014720229
18	0x3c806ba6	0.01567633
19	0xbdbf24bd	-0.09333179
20	0xbd660ae4	-0.05616273
21	0x3ca65148	0.02030243
22	0xbcbab99a	-0.02279358
23	0x39972f2e	0.00028836116
24	0xbd16f9da	-0.03685937
25	0xbc161e72	-0.009162532
26	0xbd097e73	-0.033567857
27	0xbc191c4d	-0.009345126
28	0xbc8f5e64	-0.017501064
29	0xbc95ae4f	-0.018271593
30	0xb9a2ef1d	-0.000310772
31	0x3d0b2933	0.033974838
32	0x3c4c966d	0.012487036
33	0x3bb896f4	0.0056332294
34	0xbc7e9127	-0.015537537
35	0x3c246c21	0.010035546
36	0x3c7a0901	0.015260936
37	0xbb8388c8	-0.0040141083
38	0xbc14ac1f	-0.00907424
39	0x3b952d62	0.004552529
40	0xbd3d7559	-0.04625449
41	0x3c877670	0.016535968
42	0x3cb055b5	0.021525243
43	0x3d175109	0.036942516
44	0xbc9f875f	-0.01947373
45	0xbd254304	-0.040347114
46	0xbc3f49ba	-0.011675293
47	0xbc397551	-0.011319474
48	0x3d224a49	0.039621625
49	0xbc048adc	-0.008089747
50	0xbbf947fb	-0.0076074577
51	0xbcfb3eff	-0.030669687
52	0xbc529b2b	-0.012854378
53	0x3b562638	0.0032676589
54	0x3c4678aa	0.0121137295
55	0x3cb40678	0.02197574
56	0x3d45a59c	0.04825364
57	0x3d31e717	0.043433275
58	0xbc1cadf1	-0.009562955
59	0x3cfe26cc	0.03102436
60	0xbcf91b7e	-0.030408617
61	0xbc8e47bb	-0.017368188
62	0xbbab9b0a	-0.005236988
63	0xbbfc9298	-0.007707905
64	0x3ca2818a	0.01983716
65	0x3c52b8a0	0.012861401
66	0x3bfa4524	0.0076376367
67	0x3ca497bc	0.020091884
68	0xbce1a1aa	-0.027542908
69	0xbdaf51dd	-0.08560536
70	0x3c872e7a	0.016501654
71	0xbbe85796	-0.007090519
72	0xbd6d268e	-0.057898097
73	0x3a435907	0.0007451926
74	0xbc7c1a63	-0.01538715
75	0x3c46ebd2	0.012141185
76	0x3c832694	0.016009606
77	0xbd4f314a	-0.050584115
78	0x3bb0899b	0.0053874976
79	0xbc28c0ed	-0.010299903
80	0x3cbda304	0.023149021
81	0x3ca7e9c8	0.020497218
82	0xbb94ff49	-0.004547034
83	0xbb54407e	-0.0032387073
84	0x3c12be29	0.0089564705
85	0x3c31f127	0.010860718
86	0x3d5e46ab	0.054266613
87	0x3d820b05	0.06349758
88	0x3c93bc6d	0.018034184
89	0xbd1bc159	-0.038026188
90	0xbc79011d	-0.015198019
91	0x3aa80e41	0.0012821631
92	0x3c72e5fe	0.014825342
93	0xbcf20932	-0.0295454
94	0xbdead65e	-0.114666685
95	0x3c9160a0	0.01774627
96	0xbca817a7	-0.02051909
97	0x3d273334	0.040820315
98	0xbc72706f	-0.014797314
99	0x3cbccd21	0.023047032
100	0xbc48857d	-0.012238857
101	0x3c03561e	0.008016137
102	0xbc9a815a	-0.018860508
103	0xbd289e5b	-0.041166645
104	0xbcc4069b	-0.023928931
105	0x3a693774	0.0008896508
106	0x3cd0701c	0.025444083
107	0xbb795393	-0.00380442
108	0x3b3457ac	0.0027518077
109	0x3d07e246	0.033174776
110	0xbc0c1c32	-0.008551644
111	0x3c046b24	0.008082185
112	0xbc877cbd	-0.016538972
113	0x3c52dd03	0.012870076
114	0x3b7c74b5	0.0038521711
115	0x3bdd6131	0.006755971
116	0x3c503dce	0.012710048
117	0xbcc1c8a2	-0.02365524
118	0x3d1c162d	0.038107086
119	0x3cb5e35f	0.022203146
120	0x3cc64f03	0.024207598
121	0x3cb38fab	0.021919092
122	0x3ccf5185	0.025307426
123	0x3c2f0251	0.010681705
124	0x3c396748	0.011316128
125	0xbc714cfe	-0.014727829
126	0x3ca28567	0.019839002
127	0xbcb64576	-0.022249918
128	0xbca88f50	-0.02057615
129	0x3a27dda5	0.0006403572
130	0xbb9496ba	-0.0045345696
131	0x3bcaeb46	0.0061925976
132	0x3cff351f	0.03115326
133	0x3cf64c34	0.030065633
134	0xbc3b1bc1	-0.011420191
135	0x3c7aef27	0.015315807
136	0x3cab0061	0.020874204
137	0xbb4fe0ef	-0.0031719764
138	0x3ba2341e	0.0049500605
139	0x3b279e3b	0.002557649
140	0x3c625828	0.013814963
141	0x3bd90a65	0.0066235536
142	0xbc4ea0c7	-0.0126115745
143	0xbcaa82d3	-0.020814335
144	0xbc411659	-0.011785113
145	0xbccd6eae	-0.02507719
146	0x3c7c4131	0.015396402
147	0xbaa2a9d8	-0.0012410237
148	0x3c2c488e	0.010515345
149	0x3ba8ce7e	0.005151569
150	0x3b4ad14b	0.0030947502
151	0xbc92c7b4	-0.017917491
152	0xbbfe4dd7	-0.007760744
153	0x3d0b072a	0.03394238
154	0x3c13735b	0.008999671
155	0xbcb181dc	-0.021668367
156	0x3c9592e7	0.018258525
157	0xbd1c3ef1	-0.038145963
158	0xbc3e9a08	-0.011633404
159	0x3d358f14	0.044325903
160	0x3ca16f2d	0.019706333
161	0xbc313f4e	-0.010818316
162	0xbc23b0f1	-0.009990917
163	0x3c7c9fb5	0.0154189365
164	0x3c449fe3	0.012001011
165	0x3cd516ae	0.026011791
166	0x39b5acf4	0.0003465187
167	0xbcd7d075	-0.026344517
168	0x3a7c811c	0.0009632276
169	0x3ce945d6	0.028475683
170	0xbc256bf2	-0.010096537
171	0xbc74a5f3	-0.0149321435
172	0x3ce7277f	0.028217075
173	0xbcb4a834	-0.022052862
174	0xbac2925d	-0.0014844645
175	0x3cad8ffd	0.021186823
176	0xbbebce34	-0.007196212
177	0xbb26135c	-0.002534113
178	0xbc0f04e9	-0.008729198
179	0x3bc16636	0.005902077
180	0x3cf51d87	0.029921306
181	0x3ba32240	0.004978448
182	0x3c3e2c21	0.011607201
183	0x3b987892	0.004653045
184	0x3cdd59bd	0.02702033
185	0xbc74753e	-0.014920531
186	0x3d11ba6f	0.035578188
187	0x3d5b6791	0.053565565
188	0x3c1a1cf1	0.009406314
189	0xbc537528	-0.01290635
190	0x3c34fb58	0.011046253
191	0x3a7126c2	0.0009199196
192	0xbc88c89b	-0.016697219
193	0x3d04289e	0.032265298
194	0xbbd09be8	-0.0063662417
195	0x3cd17401	0.02556801
196	0x3c5a7fe3	0.013336155
197	0x3d31115c	0.043229446
198	0x3bbe8037	0.0058136242
199	0x3cd83990	0.026394635
200	0x3c65e308	0.014031179
201	0xbc1ba63b	-0.009500082
202	0xbd2d636c	-0.042331144
203	0xbc7344dd	-0.014847961
204	0x3cdfbb5a	0.027311016
205	0x3c9a4765	0.018832872
206	0x3ce5316b	0.027977666
207	0x3acac87f	0.001547113
208	0xbc662ec5	-0.014049237
209	0xba97c461	-0.0011578911
210	0xbc54e79b	-0.012994672
211	0xbc1d9db4	-0.009620119
212	0xbbbdb420	-0.005789295
213	0xbd036ac3	-0.032084238
214	0x3c9906df	0.018680034
215	0x3c1037f6	0.008802405
216	0xbba656e2	-0.005076275
217	0x3aa6ced4	0.0012726435
218	0x3d33de1a	0.043912984
219	0x3cec440b	0.02884104
220	0x3d397d8a	0.04528574
221	0xbc7c3c18	-0.015395187
222	0xbce5ebcf	-0.028066544
223	0xbb6c5bc3	-0.0036065436
224	0x3c70461f	0.014665156
225	0x3c4d1f11	0.012519614
226	0x3c13c4da	0.009019101
227	0x399d8720	0.0003004605
228	0xbc277644	-0.010221068
229	0xbbc993d6	-0.0061516566
230	0x3cb69dd3	0.022292053
231	0xbb2f1439	-0.0026714935
232	0x3d74c725	0.05976023
233	0xbd83301a	-0.06405659
234	0xbca68783	-0.020328289
235	0x3cc4a5dc	0.02400487
236	0x3c643968	0.013929702
237	0x3c4bb4aa	0.01243321
238	0xbbbffc07	-0.0058589014
239	0xbcd69955	-0.026196161
240	0x3c2cc4f0	0.010545
241	0x3bba03ac	0.0056767073
242	0x3c008b63	0.007845732
243	0xbce82215	-0.028336564
244	0xbcfb992e	-0.03071269
245	0xbc66d2c9	-0.014088341
246	0xbc574f40	-0.013141453
247	0x3c8de037	0.017318828
248	0xbc6dd55e	-0.014516203
249	0x3c03e2f1	0.0080497125
250	0x3b85ec53	0.00408701
251	0xbc11b6d8	-0.008893691
252	0x3a0081d1	0.00049021567
253	0x3c757055	0.014980395
254	0xbc7b92dc	-0.015354838
255	0x3ca73696	0.02041177

fc3.log_sigma f4 [6, 100]
0	0xc0a12aa4	-5.036455
1	0xc0a51b09	-5.15955
2	0xc0a58474	-5.1724186
3	0xc0a309b5	-5.094935
4	0xc0a31318	-5.096081
5	0xc0a0dbe6	-5.026843
6	0xc0a0ac84	-5.021059
7	0xc0a02431	-5.004418
8	0xc0a19b02	-5.050172
9	0xc0a2dc46	-5.089389
10	0xc0a14d18	-5.040661
11	0xc0a15a0b	-5.0422416
12	0xc0a13405	-5.0376
13	0xc0a1015e	-5.031417
14	0xc09e7025	-4.9511895
15	0xc0a5900c	-5.173834
16	0xc09f7c98	-4.983959
17	0xc0a0fd6b	-5.030935
18	0xc0a06520	-5.0123444
19	0xc0b13818	-5.5380974
20	0xc09f4f67	-4.9784427
21	0xc0b5f468	-5.6860847
22	0xc0b2cc9f	-5.587478
23	0xc0a60f1b	-5.189344
24	0xc0a12d57	-5.0367846
25	0xc0a0bd2f	-5.0230937
26	0xc0a0320c	-5.006109
27	0xc0a0bce5	-5.0230584
28	0xc0a31179	-5.095883
29	0xc0a0e815	-5.0283303
30	0xc0a07230	-5.013939
31	0xc0a2a10b	-5.0821586
32	0xc0bdfda2	-5.937211
33	0xc0a67db6	-5.2028456
34	0xc0a17cc0	-5.0464783
35	0xc0a0986f	-5.0186076
36	0xc0acb577	-5.3971515
37	0xc0a24ef6	-5.072139
38	0xc0a04797	-5.008739
39	0xc0a08a70	-5.016899
40	0xc0a2339c	-5.0688
41	0xc0a00ee0	-5.001816
42	0xc0a0cba4	-5.0248585
43	0xc0b8ca74	-5.7747135
44	0xc0a00afd	-5.0013413
45	0xc0a21432	-5.0649652
46	0xc0a5916d	-5.174002
47	0xc0a09f93	-5.0194793
48	0xc0ab770e	-5.358283
49	0xc0a08667	-5.0164065
50	0xc0a0cd4b	-5.02506
51	0xc0a4ea61	-5.1536107
52	0xc0a092fd	-5.017943
53	0xc0a0f6ba	-5.030118
54	0xc0a054e4	-5.0103626
55	0xc0a244f2	-5.070916
56	0xc0c6b6ac	-6.209799
57	0xc0ade4d3	-5.4341826
58	0xc0a18862	-5.0478983
59	0xc0ce94b6	-6.455653
60	0xc0af20f8	-5.4727745
61	0xc0a06502	-5.01233
62	0xc0a052c3	-5.0101027
63	0xc0a0fa73	-5.0305724
64	0xc0a1509b	-5.0410895
65	0xc0a0d0bd	-5.0254807
66	0xc0a3dfa4	-5.12105
67	0xc0a06925	-5.012835
68	0xc09f7235	-4.9826913
69	0xc0b1250f	-5.5357738
70	0xc0a13a8b	-5.0383964
71	0xc0a2aace	-5.08335
72	0xc0a26681	-5.0750127
73	0xc0a07d41	-5.01529
74	0xc09fca0d	-4.9934144
75	0xc0a0ccc9	-5.024998
76	0xc0a07a5f	-5.014938
77	0xc0a0cd13	-5.0250335
78	0xc0a08149	-5.015782
79	0xc0a54b11	-5.1654134
80	0xc0a96170	-5.293144
81	0xc0a20186	-5.062686
82	0xc0a12276	-5.0354567
83	0xc0a02dff	-5.0056148
84	0xc0a0caaf	-5.0247416
85	0xc0a07f7a	-5.015561
86	0xc0ba8331	-5.8285146
87	0xc0c5eaaf	-6.184898
88	0xc0a3884a	-5.110387
89	0xc0a328ee	-5.0987463
90	0xc0a0f7fe	-5.0302725
91	0xc0a17af3	-5.0462584
92	0xc0a004db	-5.0005927
93	0xc0a03158	-5.0060234
94	0xc0a39ca0	-5.1128693
95	0xc0a29cc8	-5.0816383
96	0xc0a5ba23	-5.178972
97	0xc0b9f431	-5.8110585
98	0xc0a12412	-5.035653
99	0xc0ac6f71	-5.3886037
100	0xc0a06205	-5.0119653
101	0xc0a9dafa	-5.3079805
102	0xc0a4ccf4	-5.1500187
103	0xc0a446dd	-5.1336503
104	0xc0a25931	-5.0733876
105	0xc0a071a5	-5.0138726
106	0xc09fc718	-4.9930534
107	0xc0a0ed13	-5.0289397
108	0xc09fc4c6	-4.99277
109	0xc0a0e5e1	-5.0280614
110	0xc0a10c0b	-5.03272
111	0xc0a19177	-5.049007
112	0xc0a0b359	-5.021893
113	0xc0a175e2	-5.04564
114	0xc0a2346b	-5.0688987
115	0xc0a37351	-5.1078267
116	0xc0a146b5	-5.039881
117	0xc0a0d6b1	-5.0262074
118	0xc0a0a7ed	-5.0204988
119	0xc0bebf5b	-5.960859
120	0xc0a8bd7a	-5.2731295
121	0xc0c4daff	-6.151733
122	0xc0b368e7	-5.6065555
123	0xc0a65067	-5.1973147
124	0xc09fd3dc	-4.9946117
125	0xc0a31a12	-5.0969324
126	0xc0a2d192	-5.0880823
127	0xc0a1069b	-5.0320563
128	0xc0a91184	-5.283388
129	0xc0a0da65	-5.0266595
130	0xc0a118da	-5.0342836
131	0xc09fa8a3	-4.9893355
132	0xc0d22522	-6.567033
133	0xc0ae91b6	-5.455287
134	0xc0a34167	-5.1017337
135	0xc0a0b1e3	-5.0217147
136	0xc0ac2729	-5.3797803
137	0xc09fda46	-4.9953947
138	0xc0a1b8c9	-5.053807
139	0xc0a0a011	-5.0195394
140	0xc0a203e9	-5.0629773
141	0xc09f0268	-4.9690437
142	0xc0a16fb8	-5.0448875
143	0xc0bafd9e	-5.843459
144	0xc0a0fe81	-5.0310674
145	0xc0a12de2	-5.036851
146	0xc0ad1077	-5.40826
147	0xc0a075de	-5.014388
148	0xc0aaefdb	-5.341779
149	0xc0a10f39	-5.033108
150	0xc0a07cf4	-5.015253
151	0xc0bdec4e	-5.935096
152	0xc0a198e9	-5.049916
153	0xc0a3153d	-5.0963426
154	0xc0a0165b	-5.002729
155	0xc0a2791c	-5.077284
156	0xc0c6798b	-6.202337
157	0xc0a9f7f1	-5.3115163
158	0xc0a39f3b	-5.1131873
159	0xc0d23cbf	-6.5699153
160	0xc0b1998a	-5.5499926
161	0xc0a06c32	-5.0132074
162	0xc0a0ddcf	-5.0270762
163	0xc0a2a4b4	-5.0826054
164	0xc0a1d8b6	-5.057704
165	0xc0a09dc7	-5.01926
166	0xc0a7f4bb	-5.2486243
167	0xc0a051e0	-5.0099945
168	0xc09fbff6	-4.9921827
169	0xc0caaa3f	-6.333282
170	0xc0a61411	-5.1899495
171	0xc0a28ea9	-5.0799146
172	0xc0a61d83	-5.1911025
173	0xc0a1807f	-5.0469356
174	0xc09e12e5	-4.9398065
175	0xc0a0cc50	-5.0249405
176	0xc0a09b29	-5.0189404
177	0xc0a17640	-5.045685
178	0xc09ffb0e	-4.9993963
179	0xc0a677df	-5.2021327
180	0xc0bbd2f6	-5.869502
181	0xc0a1d906	-5.057742
182	0xc0a18c19	-5.048352
183	0xc0a235a9	-5.0690503
184	0xc0a414b8	-5.127529
185	0xc0a09505	-5.018191
186	0xc0bb6d1e	-5.85707
187	0xc0c8776b	-6.2645774
188	0xc0a78d53	-5.2360015
189	0xc0a31eef	-5.097526
190	0xc0a23e08	-5.070072
191	0xc0a0d18b	-5.025579
192	0xc09fe65f	-4.9968715
193	0xc0a09d97	-5.019237
194	0xc0bf5c8a	-5.9800463
195	0xc0a1e79e	-5.0595236
196	0xc0b185d4	-5.5475864
197	0xc0b9b01c	-5.8027477
198	0xc0a2f79d	-5.092726
199	0xc0ae05f5	-5.438227
200	0xc0a0ba97	-5.022777
201	0xc0a54f6b	-5.1659446
202	0xc0a22916	-5.0675154
203	0xc0a9a77b	-5.3016944
204	0xc09e59cb	-4.948461
205	0xc0a08375	-5.016047
206	0xc0a0e5ac	-5.028036
207	0xc0a16d73	-5.0446105
208	0xc0a13e57	-5.03886
209	0xc0a2990f	-5.081184
210	0xc0a11dfc	-5.03491
211	0xc0a1be86	-5.0545073
212	0xc0a0197b	-5.0031104
213	0xc0a13248	-5.037388
214	0xc0a0daf0	-5.026726
215	0xc09e774e	-4.9520636
216	0xc0a100af	-5.0313334
217	0xc0a0b9c3	-5.022676
218	0xc0a0a814	-5.0205173
219	0xc0c403bc	-6.125456
220	0xc0a3ea70	-5.122368
221	0xc0b7bc0f	-5.7417064
222	0xc0a67046	-5.2012053
223	0xc0a27f47	-5.078037
224	0xc0a136a6	-5.037921
225	0xc0a0b2d3	-5.021829
226	0xc0a08511	-5.0162435
227	0xc0a0dd47	-5.0270114
228	0xc0a69857	-5.206096
229	0xc0a05255	-5.0100503
230	0xc0a0db85	-5.026797
231	0xc09f7b75	-4.9838204
232	0xc0e2d8be	-7.088958
233	0xc0a4d088	-5.1504555
234	0xc0a22698	-5.067211
235	0xc09fee99	-4.9978757
236	0xc0a70adf	-5.220077
237	0xc0a06146	-5.011874
238	0xc0a23cda	-5.069928
239	0xc0a0733b	-5.014066
240	0xc0a3e6f8	-5.1219444
241	0xc0a02346	-5.004306
242	0xc0a26e92	-5.0759974
243	0xc0b5a124	-5.6759205
244	0xc0a04b08	-5.009159
245	0xc0a102d4	-5.031595
246	0xc0a331d3	-5.099832
247	0xc0a244aa	-5.070882
248	0xc0a2a25f	-5.0823207
249	0xc0a1fb2e	-5.0619116
250	0xc0a05ed4	-5.0115757
251	0xc0b92235	-5.7854257
252	0xc0a19168	-5.049
253	0xc0a446f0	-5.1336594
254	0xc0a0c14a	-5.023595
255	0xc0a261a5	-5.0744195

fc3.bias f4 [1, 6]
0	0xbec2eac5	-0.3806974
1	0xbe76a262	-0.24085382
2	0xbdd4d45d	-0.103920676
3	0x3e882b19	0.2659538
4	0x3eb43bcc	0.3520187
5	0x3cf3470f	0.02969697
