model_weights.pt (torch_old, 104262 bytes, 12 tensors)

fc1.mu f4 [100, 49]
0.0139522245 -0.019438414 -0.009248785 -0.0012202797 -0.08540658 0.0015691024 -0.077303246 -0.03238643
0.022542074 -0.013416901 0.0035587326 0.001180917 -0.0005793985 -0.00033326523 -0.00056036277 -0.00030214872
-0.00014409464 -0.00027667536 -0.00074040936 0.0005132788 -0.024327163 -0.021193169 -0.014416491 3.0942902e-06
-0.0639761 -0.011768091 -0.00014509013 -0.012286151 0.014530281 0.020835778 0.016195474 -0.00026898138
-0.0005380334 -0.0025356691 -0.0010737915 -3.17995e-05 -0.0011765142 -0.00096146006 -0.00040184896 -0.015509579
0.23189746 -0.28630382 -0.2899743 -0.045151696 -0.013435374 -0.18714918 1.4031456 -0.0030412516
-0.00058103295 0.17274056 0.2285027 0.036025736 -0.171921 1.3001984 1.4634131 0.74558276
0.06393731 0.14301212 0.023016743 0.0028284306 -0.000528379 -0.00078817696 9.4021576e-05 -0.0010303499
-0.0012952053 -0.00025991353 0.00017571407 -0.0027696178 -0.0005665759 0.030844536 0.028327052 -0.02401645
1.0858738 0.16340333 0.1672048 0.00076860614 0.1145337 -0.117475145 0.38363436 0.22357236
0.8532297 0.98151547 0.4282413 -0.0001321655 0.0014470078 -0.00126001 -0.0009580832 0.00014889054
0.16082036 0.012533418 -0.06779195 -0.23360807 -0.02333436 -0.01177447 0.036938343 -0.8828376
-0.420994 -0.321044 0.0010235064 0.0018191368 -0.0905173 -0.0045701503 0.032721467 -0.002447986
0.030837314 0.0020437525 0.030676099 -0.009432502 0.0017906638 -0.00011190389 -9.992482e-05 -0.00037663645
-0.00021041761 0.00013232203 0.0004909489 -0.00018056197 -7.371402e-05 -3.9908395e-05 0.031782743 0.0011199907
-0.03858826 6.516543e-05 0.08020209 0.039072152 -0.0001349093 -0.004020223 -0.006942534 -0.0122925965
-0.0013672041 -0.0016173584 0.0018717822 -0.016677374 -0.00035772345 -5.3748096e-05 -0.00010959136 0.00029376947
-6.513903e-06 -0.006421458 -0.00020418923 -0.02174092 -0.00027482607 2.19934e-05 -0.07887725 -0.085649624
-0.00036620608 0.00013914489 0.0026089111 0.1919199 -0.015888456 -0.09585388 0.002804075 -0.024153696
-0.14340639 -0.00086087233 0.023576034 0.022089146 -0.031926684 0.022399992 0.0009777448 0.00039225217
0.0001392882 -0.0012290379 0.004519287 0.00020923506 -0.00026787815 -0.00031594874 -0.00013019404 0.0982286
0.113293365 -0.12531386 -0.0013380746 0.08394356 0.051055275 -1.7601778e-05 -0.087450825 -0.03742594
-0.0014381437 0.7080024 0.0057811243 -0.007496821 -0.00052788696 0.0001315457 -0.0005553566 0.0011720784
-0.0005097814 -7.396123e-05 0.007015255 -0.8949698 0.010602398 0.14461039 -0.18381046 0.002776577
-0.088147536 -0.9340371 -0.06456944 -0.3052736 0.12614532 -0.008992129 -0.009111561 -0.32925817
-0.3267382 -0.09740734 -0.2515609 0.024247546 0.018533206 0.008115804 -0.0023078446 0.003283323
-0.0048364103 0.0016281372 -0.02002897 0.0006071133 0.0014880567 0.0069376994 0.004578361 3.1766968
-0.028091358 -0.03859027 0.004178868 -1.3520877 -0.18449059 -0.18799178 -0.48899582 0.079660624
-0.119634025 0.13348243 -0.31393132 0.09570131 0.077664964 0.17908911 0.0040471135 -0.002729857
0.008549466 0.14257523 0.43370977 0.07333449 1.5545446 -0.22182813 -0.20849635 -0.08727693
-0.018766487 0.047347922 1.3902619 0.12661846 -0.19145885 0.1478601 -0.04945872 -0.11473641
0.00021069539 -0.00014098671 -0.13960293 -0.00033913762 0.00032750168 -0.005620586 0.007636565 0.014807769
00000000: df97 643c 4f3d 9fbc 3788 17bc cbf1 9fba
00000010: a5e9 aebd 57aa cd3a 2a51 9ebd a2a7 04bd
00000020: 28aa b83c 90d2 5bbc a039 693b 00c9 9a3a
00000030: c6e2 17ba 1aba aeb9 4fe5 12ba b769 9eb9
00000040: 1c18 17b9 bd0e 91b9 0818 42ba 8f8d 063a
00000050: c249 c7bc 4c9d adbc 2533 6cbc 80a7 4f36
00000060: e705 83bd f3ce 40bc 5623 18b9 da4b 49bc
00000070: 6a10 6e3c cbaf aa3c 5fac 843c 1206 8db9
00000080: cf0a 0dba 782d 26bb 77be 8cba 7460 05b8
00000090: 4435 9aba 7e0a 7cba 41af d2b9 e41b 7ebc
000000a0: 8776 6d3e 6a96 92be 8377 94be fcf0 38bd
000000b0: 0b20 5cbc 09a4 3fbe 469a b33f bc4f 47bb
000000c0: 7650 18ba e7e2 303e 9dfc 693e b98f 133d
000000d0: 0f0c 30be e76c a63f 1f51 bb3f 83de 3e3f
000000e0: 90f1 823d c571 123e 9c8d bc3c 315d 393b
000000f0: ea82 0aba a99d 4eba 732d c538 ce0c 87ba
00000100: e1c3 a9ba 0145 88b9 e33f 3839 7a82 35bb
00000110: 4486 14ba aead fc3c 220e e83c 25be c4bc
00000120: eafd 8a3f 3453 273e bc37 2b3e 497c 493a
00000130: a590 ea3d cf96 f0bd b96b c43e 27f0 643e
00000140: 436d 5a3f 9944 7b3f 7242 db3e e895 0ab9
00000150: 86a9 bd3a eb26 a5ba e027 7bba 801f 1c39
00000160: 18ae 243e f758 4d3c 82d6 8abd f436 6fbe
00000170: b327 bfbc b5e9 40bc a94c 173d a501 62bf
00000180: 878c d7be e15f a4be 2d27 863a 1a70 ee3a
00000190: 2261 b9bd 33c1 95bb f206 063d 646e 20bb
000001a0: 899e fc3c 7af0 053b 714c fb3c c88a 1abc
000001b0: b5b4 ea3a f2ad eab8 bb8e d1b8 4a77 c5b9
000001c0: 8ca3 5cb9 edbf 0a39 06b3 003a 3c55 3db9
000001d0: ea96 9ab8 5063 27b8 9f2e 023d a7cc 923a
000001e0: b90e 1ebd 6da9 8838 fe40 a43d 1f0a 203d
000001f0: 7176 0db9 13bc 83bb 327e e3bb e366 49bc
00000200: c233 b3ba 8bfd d3ba 9756 f53a fd9e 88bc
00000210: d48c bbb9 946f 61b8 6ad4 e5b8 1205 9a39
00000220: 0092 dab6 186b d2bb a11b 56b9 041a b2bc
00000230: 8816 90b9 787e b837 658a a1bd 1269 afbd
00000240: 59ff bfb9 6ce7 1139 44fa 2a3b a686 443e
00000250: 8228 82bc 0a4f c4bd 92c4 373b f9dd c5bc
00000260: 20d9 12be 2aac 61ba 8722 c13c 4cf4 b43c
00000270: 8ec5 02bd 3080 b73c ac27 803a 32a7 cd39
00000280: e40d 1239 ab17 a1ba 8716 943b 1c66 5b39
00000290: ff71 8cb9 eca5 a5b9 b284 08b9 142c c93d
000002a0: 5a06 e83d 4752 00be 5562 afba 9aea ab3d
000002b0: 561f 513d 88a7 93b7 6b19 b3bd f14b 19bd
000002c0: 1880 bcba a53f 353f 966f bd3b e5a7 f5bb
000002d0: e561 0aba 88ef 0939 5a95 11ba 6da0 993a
000002e0: daa2 05ba a21b 9bb8 39e0 e53b be1c 65bf
000002f0: aeb5 2d3c bf14 143e cf38 3cbe 3bf7 353b
00000300: b286 b4bd 0e1d 6fbf fc3c 84bd d24c 9cbe
00000310: 3d2c 013e b953 13bc a848 15bc 8794 a8be
00000320: 3b4a a7be 807d c7bd 97cc 80be caa2 c63c
00000330: f3d2 973c 26f8 043c 353f 17bb 052d 573b
00000340: c07a 9ebb 3867 d53a cb13 a4bc af26 1f3a
00000350: e60a c33a a455 e33b 1306 963b 004f 4b40
00000360: d91f e6bc d510 1ebd e3ee 883b 3611 adbf
00000370: 1aeb 3cbe eb80 40be a95d fabe 1c25 a33d
00000380: af02 f5bd 9eaf 083e 9bbb a0be 0cff c33d
00000390: cf0e 9f3d 2363 373e a69d 843b 67e7 32bb
000003a0: 0f13 0c3c 3eff 113e 350f de3e 6530 963d
000003b0: 51fb c63f ea26 63be 1180 55be 3fbe b2bd
000003c0: 2dbc 99bc e5ef 413d 1af4 b13f 45a8 013e
000003d0: ca0d 44be a368 173e 3a95 4abd ecfa eabd
000003e0: 1dee 5c39 d5d5 13b9 12f4 0ebe 48ce b1b9
000003f0: 88b4 ab39 e52c b8bb 263c fa3b 499c 723c

fc1.log_sigma f4 [100, 49]
-4.719903 -4.467671 -5.0937715 -4.446382 -3.6745553 -4.179923 -3.6693428 -4.5409236
-4.4143267 -5.051366 -5.1887765 -3.3628154 -3.7977395 -3.7414784 -3.7269058 -4.1093235
-3.9826443 -4.56935 -3.8935034 -4.3728347 -4.806874 -4.6680794 -5.029468 -4.798554
-4.7799916 -4.859849 -4.7669888 -4.411585 -4.6229186 -4.594478 -4.4858856 -4.4652185
-4.6915064 -4.583579 -4.1917214 -4.584165 -4.1949296 -3.9528465 -4.4140983 -4.5305066
-0.47214386 -1.515221 -0.6051006 -1.7328756 -5.0328135 -4.039959 0.8710798 -3.0520475
-2.943348 -4.628128 -3.8870595 -5.396453 -1.4859515 -1.7394842 -1.1033942 -1.7419721
-3.6463232 -3.7592642 -5.421614 -5.2914267 -3.1539915 -3.1095243 -3.137578 -3.044424
-2.9876647 -3.2901692 -3.0486012 -2.650099 -3.5752964 -4.6168056 -4.5935154 -5.3214116
0.47513574 -5.006208 -5.006199 -3.4209363 -3.751731 -3.7624032 -2.2820203 -2.3007326
-2.2836719 -2.28758 -2.2951682 -3.1327906 -3.2049835 -3.0014677 -3.124486 -2.884279
-3.5368316 -1.6117202 -2.5674193 -1.241047 -2.77903 -5.58991 -4.952698 0.20080915
-1.1853311 -1.7372206 -4.0081677 -3.8452935 -4.7107396 -3.8068552 -2.1533363 -4.006722
-3.2879915 -4.421184 -3.9608753 -4.8834376 -4.9153028 -4.5230255 -4.6748843 -4.114442
-4.729124 -3.7415872 -3.3324685 -4.8233247 -4.713903 -4.8919353 -3.6531 -4.5515366
-4.842493 -4.8823285 -3.8509543 -3.8074787 -4.490145 -4.427098 -4.3699174 -3.879265
-4.073415 -3.998643 -3.1616914 -3.9943998 -4.211484 -4.0186086 -4.547758 -3.2521877
-4.7737336 -4.180982 -4.0155106 -2.300613 -3.7642353 -3.7130086 -4.926915 -3.792288
-4.4769926 -3.516564 -3.4813337 -4.150349 -5.109771 -5.0914755 -3.358867 -2.6703126
-2.13956 -3.46379 -5.1019077 -5.0959706 -5.054502 -5.107518 -2.709632 -3.7690222
-3.9380233 -3.5582693 -1.8188928 -3.089434 -3.873951 -1.5665534 -3.8882883 -5.1141315
-5.1142106 -5.0973463 -2.7929723 -5.1378064 -5.132646 -4.326155 -5.085513 -5.0823607
-3.398124 -2.4953778 -3.5001554 -3.6382358 -4.2212877 -3.0758016 -3.891004 -2.4817376
-3.071383 -3.4184046 -5.1402354 -0.047946833 -2.4871392 -1.3323048 -1.5015051 -5.285166
-4.8970947 0.21407247 -1.6005408 -1.5182397 -5.168136 -5.281417 -5.519005 -4.286644
-4.2894516 -4.285062 -4.2882996 -5.2483478 -5.2464314 -5.567413 -5.399027 -2.8302035
-2.8814142 -3.478264 -1.9944103 -2.959649 -3.0805511 -2.672923 -2.7465963 1.1493163
-5.302864 -5.307681 -5.596293 0.6333259 -5.6535745 -5.6535816 0.001400172 -5.264505
-5.2673054 -4.823577 -4.824506 -4.821955 -4.8175654 -4.8230577 -3.277664 -2.6596444
-2.2039223 -0.74031186 0.20825323 -5.249234 -0.5699899 -2.9204476 -1.6047713 -2.4701216
-5.7526884 -5.291714 0.014336329 -2.026326 -2.426626 -4.0566955 -4.5600133 -4.9448085
-4.1287346 -4.2346396 -2.7424128 -4.2187333 -4.7703247 -4.530882 -5.138227 -5.0902596
00000000: 7209 97c0 29f7 8ec0 2d00 a3c0 c348 8ec0
00000010: ea2b 6bc0 eec1 85c0 83d6 6ac0 3f4f 91c0
00000020: 2a42 8dc0 caa4 a1c0 750a a6c0 5e38 57c0
00000030: 2a0e 73c0 6274 6fc0 a085 6ec0 947f 83c0
00000040: a5e3 7ec0 1d38 92c0 292f 79c0 43ee 8bc0
00000050: e9d1 99c0 e860 95c0 67f1 a0c0 c18d 99c0
00000060: b1f5 98c0 e283 9bc0 2c8b 98c0 b42b 8dc0
00000070: f3ee 93c0 f705 93c0 608c 8fc0 12e3 8ec0
00000080: d220 96c0 aeac 92c0 9522 86c0 7bb1 92c0
00000090: dd3c 86c0 70fb 7cc0 4b40 8dc0 e9f9 90c0
000000a0: d7bc f1be c3f2 c1bf dfe7 1abf dece ddbf
000000b0: cf0c a1c0 5847 81c0 16ff 5e3f bf54 43c0
000000c0: d05f 3cc0 a019 94c0 95c5 78c0 beaf acc0
000000d0: a933 bebf 6ba7 debf 053c 8dbf f1f8 debf
000000e0: 5c5d 69c0 c997 70c0 dd7d adc0 5e53 a9c0
000000f0: ffda 49c0 7202 47c0 14ce 48c0 d8d7 42c0
00000100: e635 3fc0 2292 52c0 481c 43c0 399b 29c0
00000110: a8d1 64c0 dfbc 93c0 14fe 92c0 0149 aac0
00000120: fe44 f33e db32 a0c0 c832 a0c0 9ff0 5ac0
00000130: 5c1c 70c0 37cb 70c0 9f0c 12c0 343f 13c0
00000140: ae27 12c0 b667 12c0 09e4 12c0 a47f 48c0
00000150: 731e 4dc0 0c18 40c0 94f7 47c0 0798 38c0
00000160: 735b 62c0 d94c cebf 9950 24c0 a1da 9ebf
00000170: a1db 31c0 8be0 b2c0 817c 9ec0 eaa0 4d3e
00000180: eeb8 97bf 3f5d debf e942 80c0 4a19 76c0
00000190: 61be 96c0 84a3 73c0 43d0 09c0 1137 80c0
000001a0: 746e 52c0 577a 8dc0 fb7e 7dc0 1f45 9cc0
000001b0: 294a 9dc0 a0bc 90c0 a798 95c0 82a9 83c0
000001c0: fc54 97c0 2a76 6fc0 2a47 55c0 ad58 9ac0
000001d0: 4bd8 96c0 bc8a 9cc0 64cc 69c0 30a6 91c0
000001e0: b4f5 9ac0 093c 9cc0 0976 76c0 bbad 73c0
000001f0: 45af 8fc0 c9aa 8dc0 5dd6 8bc0 e145 78c0
00000200: 6a59 82c0 c4e9 7fc0 2759 4ac0 3fa4 7fc0
00000210: 7ac4 86c0 7198 80c0 3c87 91c0 d823 50c0
00000220: 6dc2 98c0 9bca 85c0 107f 80c0 3e3d 13c0
00000230: 3be9 70c0 efa1 6dc0 4aa9 9dc0 d9b4 72c0
00000240: 8643 8fc0 620f 61c0 2cce 5ec0 a9cf 84c0
00000250: 3e83 a3c0 5eed a2c0 adf7 56c0 67e6 2ac0
00000260: 8dee 08c0 bcae 5dc0 d442 a3c0 3112 a3c0
00000270: 7bbe a1c0 ca70 a3c0 9c6a 2dc0 a937 71c0
00000280: 9308 7cc0 afba 63c0 7bd1 e8bf 49b9 45c0
00000290: d0ee 77c0 d284 c8bf b7d9 78c0 f7a6 a3c0
000002a0: 9da7 a3c0 761d a3c0 0fc0 32c0 e968 a4c0
000002b0: a33e a4c0 dd6f 8ac0 86bc a2c0 b3a2 a2c0
000002c0: dd7a 59c0 45b4 1fc0 8c02 60c0 dbd8 68c0
000002d0: ca14 87c0 efd9 44c0 3606 79c0 cad4 1ec0
000002e0: 8a91 44c0 24c7 5ac0 cf7c a4c0 e663 44bd
000002f0: 4a2d 1fc0 f788 aabf 5231 c0bf 1420 a9c0
00000300: 00b5 9cc0 d035 5b3e 85de ccbf ae55 c2bf
00000310: 5f61 a5c0 5e01 a9c0 b09b b0c0 302c 89c0
00000320: 3043 89c0 3a1f 89c0 c039 89c0 77f2 a7c0
00000330: c4e2 a7c0 3f28 b2c0 d4c4 acc0 0e22 35c0
00000340: 1769 38c0 e19b 5ec0 d648 ffbf e46a 3dc0
00000350: c027 45c0 2c11 2bc0 3cc8 2fc0 cc1c 933f
00000360: 10b1 a9c0 86d8 a9c0 d514 b3c0 a521 223f
00000370: 15ea b4c0 24ea b4c0 fa85 b73a d376 a8c0
00000380: c48d a8c0 be5a 9ac0 5a62 9ac0 754d 9ac0
00000390: 7f29 9ac0 7d56 9ac0 3fc5 51c0 9d37 2ac0
000003a0: 100d 0dc0 1485 3dbf 5640 553e baf9 a7c0
000003b0: dcea 11bf 9de8 3ac0 2569 cdbf 7916 1ec0
000003c0: 0616 b8c0 b955 a9c0 ece2 6a3c 53af 01c0
000003d0: d74d 1bc0 73d0 81c0 a1eb 91c0 df3b 9ec0
000003e0: 981e 84c0 2b82 87c0 b183 2fc0 ddff 86c0
000003f0: 80a6 98c0 fcfc 90c0 5b6c a4c0 68e3 a2c0

fc1.bias f4 [1, 100]
0.01313009 -0.2634513 -0.21057867 -0.23198126 0.03305907 -0.7209596 -0.30118087 -0.18297659
-0.058486063 0.07546104 0.15399675 -0.15951964 0.06715874 -0.45836717 0.067357436 -0.01583249
0.10048246 -0.23202685 -0.17666607 0.10561348 -0.25562793 0.02990302 0.95886517 0.11537286
0.23303163 -0.067724854 -0.07822884 -0.12896024 0.09377406 0.18109126 0.061590113 -0.117991745
-0.0029700035 0.1303588 0.25293988 0.54460984 -0.497128 -0.660147 -0.041392464 0.032766595
-0.1404639 0.24612506 0.07077892 0.44913194 0.5377731 0.030544354 0.04810093 -0.21359307
0.011976117 -0.10188124 -0.43496495 -0.028799094 -0.0729167 0.1958074 -0.18196714 -0.08443624
-0.114490956 -0.13421848 0.71969885 0.14591384 -0.1515859 0.31162435 0.034488693 0.116372354
-0.1614545 0.12662084 -0.29378152 0.054131944 0.7437339 0.28937545 -0.5325397 0.091680005
0.061759904 0.040876616 -0.03578021 0.14359622 -0.30676633 -0.123715885 0.16713665 -0.18941773
0.03530954 -0.06987419 -0.15246145 -0.40000647 -0.20121594 -0.40961215 -0.35234424 0.072238915
-0.19740257 0.511144 0.04211449 0.5711349 0.20235111 0.31870374 -0.0057794354 -0.03630318
-0.021718966 -0.18013103 0.45358962 0.24415754
00000000: 971f 573c 17e3 86be efa1 57be 7f8c 6dbe
00000010: f368 073d cf90 38bf 6134 9abe 375e 3bbe
00000020: 158f 6fbd 518b 9a3d 53b1 1d3e 1e59 23be
00000030: 858a 893d 1aaf eabe b2f2 893d 23b3 81bc
00000040: bfc9 cd3d 7298 6dbe f3e7 34be e14b d83d
00000050: aae1 82be 2ef7 f43c 3078 753f 9b48 ec3d
00000060: d89f 6e3e 54b3 8abd 7136 a0bd 270e 04be
00000070: 9d0c c03d fd6f 393e ea45 7c3d a8a5 f1bd
00000080: 64a4 42bb c77c 053e 5681 813e 8d6b 0b3f
00000090: 9087 febe 65ff 28bf 258b 29bd 4436 063d
000000a0: c5d5 0fbe 3508 7c3e 8af4 903d 9ff4 e53e
000000b0: 7fab 093f 2738 fa3c 7b05 453d 24b8 5abe
000000c0: 7a37 443c 1da7 d0bd bab3 debe 14ec ebbc
000000d0: 5a55 95bd bc81 483e 9855 3abe e8ec acbd
000000e0: 3c7a eabd 9270 09be 2f3e 383f 706a 153e
000000f0: 5639 1bbe 3a8d 9f3e 0444 0d3d a154 ee3d
00000100: 5454 25be e5a8 013e 886a 96be 75b9 5d3d
00000110: 5865 3e3f 0529 943e 8654 08bf bac2 bb3d
00000120: f4f7 7c3d 3d6e 273d 458e 12bd e30a 133e
00000130: 7a10 9dbe c15e fdbd df25 2b3e b9f6 41be
00000140: bca0 103d 331a 8fbd db1e 1cbe a6cd ccbe
00000150: 8d0b 4ebe afb8 d1be 7766 b4be fff1 933d
00000160: e623 4abe 55da 023f 3e80 2c3d e635 123f
00000170: 2135 4f3e 232d a33e 6b61 bdbb a5b2 14bd
00000180: f9eb b1bc 4574 38be e63c e83e 6f04 7a3e

fc2.mu f4 [50, 100]
-0.0040630954 -0.10598537 -0.0062143034 -0.0058051976 0.0617665 -0.005433526 0.010780865 0.08985603
-0.051582806 -0.041664496 -0.024067612 0.016421333 0.07770305 -0.07054049 -0.02177063 -0.018760897
0.08386195 -0.03863797 0.046102207 -0.056237683 -0.026046487 0.027734853 -0.06751514 -0.034847334
-0.023916624 -0.0022854614 0.0028344758 0.00020112001 0.024444249 -0.031321425 -0.14158507 0.071219064
0.023846999 -0.0625351 -0.09881126 0.041047562 -0.12347532 0.006718293 -0.008989264 0.009597138
-0.049385414 -0.2762033 -0.11461925 -0.092838414 -0.10677872 0.0021365816 -0.046817847 -0.023824748
0.0037158001 0.06997819 0.062210307 -0.02399586 -0.017793452 -0.0023773005 0.0028405304 -0.041342568
-0.0042866427 -0.09496646 -0.103728674 -0.015076315 0.026923934 -0.16117226 0.00983551 -0.011229247
0.13996561 -0.09952087 -0.057769224 -0.04197729 -0.0880223 -0.021536227 -0.1276829 -0.101580165
-0.06684827 -0.031639364 0.008837338 -0.04330043 -0.04601255 -0.0062920176 -0.14686915 -0.0042370367
-0.034902263 0.006734409 0.04783048 0.014798267 0.02746008 -0.07126177 0.05633398 -0.08796488
0.006461779 -0.0040940917 -0.0812775 -0.061083004 -0.0009334844 -0.006159219 -0.043303728 0.00094199216
-0.045176372 -0.0069597517 -0.1068997 -0.013288795 -0.0034232377 -0.014264127 0.016243747 0.0040388163
-0.014634497 -0.004610479 0.029334975 -0.079200916 0.0050572264 0.009677793 -0.02196952 0.013631172
0.01948153 -0.014156919 -0.055439875 0.022135288 -0.04566399 -0.032229144 -0.0015379001 -0.009294041
-0.11753387 0.03769607 -0.06355139 -0.11298469 0.07062455 0.024022432 -0.011643472 0.0045236507
-0.1987071 -0.042071983 0.071958065 -0.013717721 -0.013536235 0.020476315 0.18922804 0.043028753
0.019550936 -0.007909668 0.038705613 -0.03227972 -0.025652936 0.052493103 -0.031077322 0.015928373
-0.009258655 0.0070757074 -0.0017127731 -0.053981423 0.017687708 -0.03492926 -0.02406327 -0.09295018
-0.07594657 0.19139545 -0.0037774723 0.009899556 0.02304727 -0.04704167 0.006506266 -0.014436293
-0.040174667 0.039909523 0.1087487 0.01847416 -0.12804803 -0.0041546607 0.025922595 -0.0017633992
0.009896273 0.053194158 0.02192307 0.0067928326 -0.058047507 -0.016802238 -0.026988043 0.04437976
-0.0018403038 0.027153 -0.008189558 -0.04532652 0.0051894765 0.011301195 0.03138238 -0.02975814
-0.031833608 -0.004089888 0.022953656 -0.009124879 -0.017175497 0.009989655 -0.032340143 -0.03140574
0.13358568 0.005873412 -0.03236271 0.014662821 0.040577825 -0.011206475 -0.0022687973 0.00722189
0.00069348316 0.005153256 0.0031695783 -0.00035244747 0.007111206 -0.009299668 -0.028187348 -0.052900787
0.0010943778 -0.017314488 -0.062709585 0.0012589465 -0.007054325 3.1218115e-06 0.00091153226 -0.0557143
-0.004831689 -1.9676409e-05 -0.0006054069 0.0076465253 0.0010447879 -0.00042911188 -0.0014147968 -0.00087803596
0.004237297 -0.0063963896 0.0018139016 0.0006517104 -0.01573148 -0.032945648 -0.044842426 -0.012298351
-0.00050475006 0.007603389 -0.0036523668 -0.00328519 -0.003548042 -0.048026033 0.0030207688 -0.050218396
0.004714893 0.042906784 -0.005514497 -0.03199921 0.0024291687 -0.009106304 0.0064720744 -0.005407026
0.0038572883 -0.009258705 -0.03463534 -0.0320598 -0.0017318154 0.000646928 0.002490311 0.004846129
00000000: b723 85bb dc0e d9bd 5ba1 cbbb 8739 bebb
00000010: dffe 7c3d b80b b2bb 3aa2 303c 7006 b83d
00000020: 7e48 53bd 64a8 2abd 7129 c5bc 0886 863c
00000030: c722 9f3d 8877 90bd 5258 b2bc 74b0 99bc
00000040: d0bf ab3d d942 1ebd abd5 3c3d 7c59 66bd
00000050: 715f d5bc 3434 e33c 6145 8abd 14bc 0ebd
00000060: ccec c3bc aec7 15bb 9dc2 393b bee3 5239
00000070: 4e3f c83c e54a 00bd adfb 10be 4ddb 913d
00000080: c85a c33c 6712 80bd 8f5d cabd 7d21 283d
00000090: a1e0 fcbd 2025 dc3b b547 13bc 503d 1d3c
000000a0: 5c48 4abd 856a 8dbe 7fbd eabd 1122 bebd
000000b0: cdae dabd e405 0c3b 12c4 3fbd 1e2c c3bc
000000c0: c884 733b ba50 8f3d 3cd0 7e3d f792 c4bc
000000d0: 93c3 91bc 7ccc 1bbb 3128 3a3b d356 29bd
000000e0: f776 8cbb c67d c2bd b36f d4bd a602 77bc
000000f0: 958f dc3c 570a 25be 1e25 213c e0fa 37bc
00000100: 2553 0f3e 99d1 cbbd 6c9f 6cbd 61f0 2bbd
00000110: 0945 b4bd be6c b0bc 4ebf 02be 4309 d0bd
00000120: bfe7 88bd 4798 01bd 7bca 103c cb5b 31bd
00000130: a877 3cbd 452d cebb de64 16be d7d6 8abb
00000140: adf5 0ebd 51ac dc3b e5e9 433d 6e74 723c
00000150: f6f3 e03c b1f1 91bd 76be 663d ee26 b4bd
00000160: 55bd d33b bb27 86bb d174 a6bd 2c32 7abd
00000170: 14b5 74ba 46d3 c9bb 405f 31bd 06f0 763a
00000180: dc0a 39bd a10e e4bb 3bee dabd 3fb9 59bc
00000190: 6658 60bb 16b4 69bc 9b11 853c 0c58 843b
000001a0: 88c5 6fbc 8013 97bb e74f f03c 1734 a2bd
000001b0: 17b7 a53b 9b8f 1e3c 6cf9 b3bc 4755 5f3c
000001c0: bb97 9f3c 6cf2 67bc ec14 63bd 1055 b53c
000001d0: 2a0a 3bbd b502 04bd 5d93 c9ba 0946 18bc
000001e0: 99b5 f0bd 3267 1a3d 3b27 82bd 8464 e7bd
000001f0: 9ba3 903d b1ca c43c 43c4 3ebc 223b 943b
00000200: e079 4bbe ac53 2cbd c05e 933d 4bc0 60bc
00000210: 16c7 5dbc f2bd a73c ffc4 413e eb3e 303d
00000220: 4929 a03c 8d97 01bc c789 1e3d bd37 04bd
00000230: 1b26 d2bc 0203 573d de95 febc 387c 823c
00000240: 9db1 17bc 56db e73b 217f e0ba a01b 5dbd
00000250: d0e5 903c fc11 0fbd 5620 c5bc aa5c bebd
00000260: e089 9bbd 2bfd 433e 788f 77bb bf31 223c
00000270: a1cd bc3c c4ae 40bd 8432 d53b 3486 6cbc
00000280: 318e 24bd 2b78 233d a3b7 de3d 1f57 973c
00000290: 061f 03be d223 88bb 9f5b d43c dc21 e7ba
000002a0: fa23 223c 1ee2 593d 0398 b33c 6996 de3b
000002b0: 39c3 6dbd d9a4 89bc 0716 ddbc 8dc7 353d
000002c0: 5936 f1ba f86f de3c 7f2d 06bc 4da8 39bd
000002d0: 7c0c aa3b a628 393c cf8a 003d 58c7 f3bc
000002e0: f563 02bd 7804 86bb 4e09 bc3c 8480 15bc
000002f0: a1b3 8cbc a6ab 233c 1977 04bd 4ea3 00bd
00000300: afca 083e c075 c03b c38e 04bd 543c 703c
00000310: ef34 263d 5d9b 37bc 1ab0 14bb 9ba5 ec3b
00000320: deca 353a a5dc a83b b3b8 4f3b b3c8 b8b9
00000330: 1f05 e93b a25d 18bc 27e9 e6bc 7fae 58bd
00000340: 3a71 8f3a 1dd7 8dbc e26d 80bd 3c03 a53a
00000350: f827 e7bb 5080 5136 e5f3 6e3a ae34 64bd
00000360: 2553 9ebb c40e a5b7 2bb4 1eba b48f fa3b
00000370: 44f1 883a 6cfa e0b9 b470 b9ba ff2b 66ba
00000380: 06d9 8a3b ce98 d1bb 70c0 ed3a 8bd7 2a3a
00000390: 4edf 80bc 04f2 06bd b1ac 37bd 067f 49bc
000003a0: 3451 04ba da25 f93b 8c5c 6fbb 584c 57bb
000003b0: 4486 68bb f2b6 44bd 17f8 453b ceb1 4dbd
000003c0: 647f 9a3b 06bf 2f3d f4b2 b4bb 9b11 03bd
000003d0: b032 1f3b 9b32 15bc b213 d43b 6c2d b1bb
000003e0: 8fca 7c3b d3b1 17bc c9dd 0dbd 2351 03bd
000003f0: 15fe e2ba 9a96 293a 7c34 233b 47cc 9e3b

fc2.log_sigma f4 [50, 100]
-4.6850324 -4.9565716 -4.419963 -5.287927 -5.8633847 -4.941746 -5.524713 -5.552638
-5.1795073 -5.141665 -5.171684 -4.1319747 -5.630669 -4.948651 -5.171706 -5.66147
-5.4821873 -5.238643 -5.1574244 -4.9890785 -5.2123675 -5.245725 -4.6476936 -5.2738028
-5.2909684 -5.023331 -4.3006115 -4.826587 -5.0941215 -5.523437 -5.696012 -5.3751526
-5.1981845 -5.3968906 -5.2998967 -5.464094 -4.952146 -5.156324 -4.49093 -5.4055634
-5.193722 -5.6278653 -5.1085267 -4.679545 -4.542028 -5.5448294 -5.4125023 -5.4752097
-4.730171 -6.1129384 -5.702803 -5.5289154 -5.6005826 -5.4687943 -4.4648504 -5.420235
-4.8927574 -4.4389997 -4.695444 -5.197977 -5.2994204 -5.13815 -4.4379864 -5.6581206
-5.5425177 -5.02551 -5.415233 -5.360872 -4.761528 -5.3716764 -5.008842 -4.601587
-5.088122 -4.93768 -5.1698565 -5.159582 -4.8147383 -4.624709 -5.1876063 -5.3547106
-5.168385 -4.42803 -5.4310303 -5.177357 -5.3181753 -5.430431 -5.7580667 -4.961762
-5.4879465 -5.616463 -4.6559134 -4.759419 -5.3350964 -4.923144 -5.112712 -4.7226353
-5.3361006 -4.964619 -4.683981 -4.7982116 -4.9097967 -5.1980624 -4.071343 -5.003566
-5.4964046 -5.0964556 -5.4773216 -5.447232 -4.9892287 -5.043001 -5.017823 -3.995791
-4.977309 -5.196839 -5.1811743 -5.5987396 -5.116381 -5.148767 -5.0974627 -5.2623577
-4.9639893 -4.8635373 -5.157249 -5.036524 -5.3705673 -5.14192 -3.943525 -4.7876744
-4.7080345 -5.0098596 -5.4910617 -5.2214303 -5.144053 -4.902631 -5.3509617 -5.4425106
-5.226286 -5.1329613 -4.821615 -5.26176 -5.345669 -5.47234 -5.1331754 -5.0014853
-4.9504347 -5.3564568 -4.97531 -5.357348 -4.1280236 -5.9228654 -5.413345 -5.3990383
-5.271462 -5.445117 -3.9848025 -5.043266 -4.3305845 -4.8844833 -4.901299 -4.964791
-5.2154408 -5.472251 -4.3858023 -5.0314274 -5.427131 -5.030981 -5.3603272 -4.9667645
-5.106935 -5.3217998 -5.22764 -5.016584 -5.0801344 -4.8083725 -5.0579987 -5.0278172
-4.6252313 -4.1743536 -5.227252 -4.989425 -4.819407 -4.018227 -4.9365253 -5.2625365
-5.261267 -5.562996 -5.395841 -4.441823 -5.2442985 -5.4189353 -4.6100893 -4.966
-5.4952574 -4.9587064 -4.006594 -3.9926105 -4.6252513 -4.084895 -4.9863696 -4.8575997
-4.736576 -4.3492336 -4.5129557 -4.3459744 -4.8207955 -4.3620176 -4.5416374 -3.9131699
-4.7952547 -3.5312848 -4.026934 -3.8175843 -4.3098693 -4.7537155 -4.805823 -4.4903226
-4.670251 -4.699685 -4.927369 -4.5841827 -4.7146077 -4.3618846 -4.5208836 -4.82479
-4.7621007 -4.1100235 -4.662578 -4.9034743 -4.3927116 -4.361411 -3.9406033 -4.6746893
-4.988059 -4.8978877 -4.366044 -3.9937043 -4.8233194 -4.825811 -4.625847 -4.713384
-4.533544 -3.8526118 -4.2253118 -4.681812 -4.6713705 -4.2779746 -4.183944 -4.680065
-4.4129667 -4.8433285 -4.687785 -4.9884057 -4.8811765 -4.6090117 -4.678105 -4.719227
00000000: c9eb 95c0 3c9c 9ec0 5670 8dc0 b336 a9c0
00000010: d9a0 bbc0 c922 9ec0 73ca b0c0 36af b1c0
00000020: 86be a5c0 8588 a4c0 6f7e a5c0 2339 84c0
00000030: 712e b4c0 595b 9ec0 9e7e a5c0 c32a b5c0
00000040: 146e afc0 f7a2 a7c0 9f09 a5c0 88a6 9fc0
00000050: b7cb a6c0 fbdc a7c0 e8b9 94c0 fec2 a8c0
00000060: 9d4f a9c0 21bf a0c0 9c9e 89c0 6773 9ac0
00000070: 0b03 a3c0 ffbf b0c0 bb45 b6c0 4001 acc0
00000080: 8757 a6c0 54b3 acc0 c198 a9c0 dcd9 aec0
00000090: fb77 9ec0 9b00 a5c0 b3b5 8fc0 60fa acc0
000000a0: f832 a6c0 7917 b4c0 0d79 a3c0 d5be 95c0
000000b0: 4b58 91c0 3e6f b1c0 3833 adc0 eb34 afc0
000000c0: 905d 97c0 319d c3c0 5d7d b6c0 e0ec b0c0
000000d0: f937 b3c0 5d00 afc0 0ee0 8ec0 9172 adc0
000000e0: 7891 9cc0 490c 8ec0 1441 96c0 d455 a6c0
000000f0: da94 a9c0 ba6b a4c0 fc03 8ec0 530f b5c0
00000100: 4e5c b1c0 fad0 a0c0 9749 adc0 438c abc0
00000110: 705e 98c0 c6e4 abc0 6f48 a0c0 3340 93c0
00000120: e5d1 a2c0 7901 9ec0 776f a5c0 4c1b a5c0
00000130: 5612 9ac0 9efd 93c0 df00 a6c0 ca59 abc0
00000140: 6963 a5c0 6cb2 8dc0 00cb adc0 e9ac a5c0
00000150: 7e2e aac0 17c6 adc0 1542 b8c0 c1c6 9ec0
00000160: 429d afc0 11ba b3c0 3efd 94c0 294d 98c0
00000170: 1cb9 aac0 658a 9dc0 569b a3c0 d41f 97c0
00000180: 56c1 aac0 29de 9ec0 2ce3 95c0 f38a 99c0
00000190: 0e1d 9dc0 8756 a6c0 7148 82c0 361d a0c0
000001a0: 8ce2 afc0 2a16 a3c0 3846 afc0 b94f aec0
000001b0: c3a7 9fc0 4460 a1c0 0292 a0c0 0abb 7fc0
000001c0: 1e46 9fc0 814c a6c0 2ecc a5c0 e028 b3c0
000001d0: 65b9 a3c0 b3c2 a4c0 6a1e a3c0 3c65 a8c0
000001e0: 00d9 9ec0 19a2 9bc0 2f08 a5c0 342b a1c0
000001f0: b0db abc0 9c8a a4c0 b762 7cc0 a134 99c0
00000200: 38a8 96c0 c550 a0c0 c7b6 afc0 f515 a7c0
00000210: 159c a4c0 5ae2 9cc0 143b abc0 0c29 aec0
00000220: bc3d a7c0 3841 a4c0 ac4a 9ac0 5760 a8c0
00000230: b80f abc0 691d afc0 f942 a4c0 2b0c a0c0
00000240: f669 9ec0 1868 abc0 bd35 9fc0 656f abc0
00000250: c518 84c0 1d88 bdc0 1f3a adc0 ecc4 acc0
00000260: d1af a8c0 663e aec0 0107 7fc0 6f62 a1c0
00000270: 2694 8ac0 b04d 9cc0 71d7 9cc0 91df 9ec0
00000280: e4e4 a6c0 ae1c afc0 7e58 8cc0 7401 a1c0
00000290: 0fab adc0 ccfd a0c0 cd87 abc0 bcef 9ec0
000002a0: 036c a3c0 2f4c aac0 d448 a7c0 db87 a0c0
000002b0: 7690 a2c0 30de 99c0 20db a1c0 e1e3 a0c0
000002c0: e501 94c0 4e94 85c0 a645 a7c0 5fa9 9fc0
000002d0: 9538 9ac0 5195 80c0 04f8 9dc0 b366 a8c0
000002e0: 4d5c a8c0 1004 b2c0 bbaa acc0 6a23 8ec0
000002f0: 4bd1 a7c0 eb67 adc0 da85 93c0 79e9 9ec0
00000300: 26d9 afc0 b9ad 9ec0 0536 80c0 ee86 7fc0
00000310: 0f02 94c0 76b7 82c0 5790 9fc0 7571 9bc0
00000320: 0892 97c0 ec2c 8bc0 226a 90c0 3912 8bc0
00000330: f543 9ac0 a695 8bc0 1855 91c0 6071 7ac0
00000340: ba72 99c0 9200 62c0 a5dc 80c0 4d53 74c0
00000350: 73ea 89c0 701e 98c0 4dc9 99c0 b9b0 8fc0
00000360: b272 95c0 d263 96c0 02ad 9dc0 a0b1 92c0
00000370: 11de 96c0 8f94 8bc0 14ab 90c0 ae64 9ac0
00000380: 2163 98c0 5085 83c0 d733 95c0 43e9 9cc0
00000390: 1891 8cc0 ae90 8bc0 d832 7cc0 0e97 95c0
000003a0: 2e9e 9fc0 7fbb 9cc0 a2b6 8bc0 da98 7fc0
000003b0: a258 9ac0 0b6d 9ac0 f006 94c0 0bd4 96c0
000003c0: cb12 91c0 3191 76c0 c135 87c0 67d1 95c0
000003d0: de7b 95c0 2be5 88c0 dfe2 85c0 18c3 95c0
000003e0: 0637 8dc0 8cfc 9ac0 5602 96c0 05a1 9fc0
000003f0: 9932 9cc0 067d 93c0 09b3 95c0 e803 97c0

fc2.bias f4 [1, 50]
0.12677528 0.031769514 -0.016268048 -0.3085847 0.36991665 0.08633959 -0.09831809 0.06815248
0.8358267 0.40652058 -1.0239955 0.2771084 0.059923965 0.19177641 0.4224003 0.08538444
0.14698964 0.18666813 0.14425838 0.50809026 0.75018513 0.052657098 0.0269371 -0.03536087
-0.020646157 -0.17068554 0.0419902 0.15750018 0.08350996 -0.095559016 -0.092125244 0.3596333
0.43547487 0.058317572 0.26824462 0.055489775 0.57800543 0.25451934 0.4457767 0.21197383
0.890623 -0.06578142 0.14847386 0.17804609 0.089427255 0.8389929 0.42020866 -0.28599435
0.08747387 0.007233577
00000000: 61d1 013e c020 023d 9244 85bc d0fe 9dbe
00000010: b765 bd3e d0d2 b03d ff5a c9bd 8793 8b3d
00000020: bdf8 553f 7723 d03e 4912 83bf 27e1 8d3e
00000030: d572 753d 0961 443e da44 d83e 0ade ae3d
00000040: 7484 163e ee25 3f3e 78b8 133e 3412 023f
00000050: 220c 403f f8ae 573d 31ab dc3c 8fd6 10bd
00000060: 2122 a9bc 31c8 2ebe eafd 2b3d ba47 213e
00000070: 4507 ab3d 72b4 c3bd 29ac bcbd db21 b83e
00000080: 90f6 de3e 68de 6e3d 5c57 893e 3f49 633d
00000090: 2af8 133f 5c50 823e d83c e43e ab0f 593e
000000a0: deff 633f 69b8 86bd 8809 183e b751 363e
000000b0: a325 b73d 3dc8 563f 9725 d73e da6d 92be
000000c0: 8025 b33d a407 ed3b

fc3.mu f4 [50, 50]
0.06532588 -0.03682595 -0.0014362785 -0.02783003 0.031905774 0.061016355 -8.55382e-05 0.018477207
0.007290006 0.044956986 -0.07941777 -0.045899022 -0.030647635 0.023027528 0.038335796 -0.064570576
0.019899737 -0.017713625 0.06301809 -0.025343226 0.1290877 0.06735874 0.0036737472 -0.02963386
-0.02382152 -0.10402579 0.0026546149 0.03482024 0.06259422 0.016017368 -0.056048967 0.015856741
0.16887617 0.016800502 0.032636046 -0.13198753 0.078299046 -0.0055721565 0.203161 0.07439859
0.10809137 0.0023517455 0.06303867 -0.040976923 0.010433629 0.15780886 0.04618922 -0.038569417
0.156064 0.10823644 -0.033352707 -0.038617842 -0.0003668674 -0.064163335 -0.0119240815 -0.015359983
-0.004043342 -0.014083175 0.017244745 0.009439106 -0.044406686 -0.02885235 -0.02594249 -0.06928036
-0.010661887 0.012928637 -0.002460277 -0.021216048 -0.018775286 0.018773397 0.028020905 -0.0026993605
-0.033461403 -0.0076227146 -0.00018454593 -0.004662084 -0.017780066 -0.005677099 -0.007703469 -0.07916308
0.024549514 -0.024392748 -0.010183121 -0.009264831 -0.0028913333 -0.034307975 -0.019629389 -0.004869738
0.0047383304 -0.013986786 0.045832846 -0.0008157983 0.06147231 -0.028742414 -0.014670391 0.061304934
-0.001815461 -0.017893054 -0.019937292 -0.0012319882 0.030712893 -0.030052468 0.038704343 -0.02176956
-0.04412548 -0.016155463 -0.047327943 0.036187734 0.0037498649 0.053716943 -0.028477872 -0.05301743
-0.059727408 -0.046848886 0.02432292 0.040839147 0.040723357 -0.062153105 -0.023745319 0.03745128
0.026222197 -0.0031117713 -0.029039156 0.018411975 0.0023557732 -0.020064091 -0.00026924373 -0.014854226
-0.013780343 -0.01945358 -0.08096237 0.05414737 0.0046340856 -0.0022102604 0.036204826 0.0402404
0.014448205 -0.019869179 0.06333111 -0.016192533 0.060421836 -0.0051727747 -0.04071239 0.078945145
-0.013987137 0.05091595 0.04052952 -0.12715194 -0.0053956956 -0.0016027195 -0.04270261 -0.041827243
-0.018593023 -0.019817283 -0.028595572 -0.029227005 0.027601704 -0.025623787 -0.011373962 0.02944454
-0.05436506 -0.13020802 0.042308178 -0.008453915 -0.010818476 0.074421234 0.013287814 -0.119700216
-0.03590692 0.07998463 0.009545215 0.01067755 0.06907571 0.023368608 0.0026682771 0.041109506
0.017150372 -0.017468922 0.024649035 -0.015232478 -0.018380612 0.078769274 0.034308497 -0.07081144
0.013478173 0.0004874216 0.0033723249 0.0058396803 0.067295186 -0.009845707 0.050041687 0.0019154609
-0.09380677 0.04334912 0.004116416 0.10027655 0.04197478 -0.05717183 0.07081528 -0.00010484166
-0.07335082 -0.08337719 -0.0028491195 -0.040238533 0.0021975026 0.00482019 -0.0023674008 -0.03570779
0.0004353441 -0.005483381 -0.010441964 0.035985425 -0.021692118 0.0013948611 -0.04210404 0.045912903
0.013934187 -0.0068327673 -0.056931734 -0.012707757 0.007450163 0.0045741373 0.109405465 0.00818478
0.05983648 -0.013157634 0.00346002 -0.0356889 0.0072284336 -0.008027216 -0.03910289 -0.091004275
0.023306051 0.07721682 -0.035485268 -0.039900012 0.0027373785 0.000741663 -0.0063048955 0.0024890683
0.02531729 0.003531431 -0.06447029 -0.06224547 0.005763131 -0.0017148567 0.01599363 0.011965196
0.009844097 -0.00034105591 0.008428843 0.012219438 0.0024926509 -0.04997442 -0.0030825867 -0.061363995
00000000: 93c9 853d cfd6 16bd 8241 bcba cefb e3bc
00000010: a1af 023d 49ec 793d f962 b3b8 835d 973c
00000020: 01e1 ee3b d124 383d c9a5 a2bd 9d00 3cbd
00000030: c010 fbbc 3aa4 bc3c ff05 1d3d 943d 84bd
00000040: c604 a33c 2a1c 91bc a10f 813d 999c cfbc
00000050: 912f 043e 61f3 893d 40c3 703b b5c2 f2bc
00000060: 5925 c3bc 790b d5bd 0cf9 2d3b ab9f 0e3d
00000070: 6631 803d db36 833c 9a93 65bd ffe5 813c
00000080: e0ed 2c3e 35a1 893c 60ad 053d bd27 07be
00000090: 405b a03d a396 b6bb 7009 503e 4a5e 983d
000000a0: 025f dd3d be1f 1a3b 6b1a 813d 6bd7 27bd
000000b0: d0f1 2a3c a598 213e e830 3d3d f7fa 1dbd
000000c0: 3ecf 1f3e 11ab dd3d d99c 08bd be2d 1ebd
000000d0: 1c58 c0b9 1168 83bd 395d 43bc 70a8 7bbc
000000e0: 037e 84bb 1ebd 66bc da44 8d3c 7ba6 1a3c
000000f0: c9e3 35bd c35b ecbc 5885 d4bc dde2 8dbd
00000100: 32af 2ebc a2d2 533c 993c 21bb 47cd adbc
00000110: a1ce 99bc abca 993c 198c e53c c1e7 30bb
00000120: d30e 09bd f7c7 f9bb ac82 41b9 65c4 98bb
00000130: 80a7 91bc f506 babb 626d fcbb 4120 a2bd
00000140: 101c c93c 4dd3 c7bc 1bd7 26bc 85cb 17bc
00000150: 867c 3dbb 8586 0cbd d0cd a0bc 5392 9fbb
00000160: ff43 9b3b d528 65bc 39bb 3b3d 4cdb 55ba
00000170: 64ca 7b3d 3675 ebbc 145c 70bc e21a 7b3d
00000180: c3f4 edba 7494 92bc 8853 a3bc aa7a a1ba
00000190: 9b99 fb3c 9830 f6bc 7288 1e3d 1456 b2bc
000001a0: ebbc 34bd 7658 84bc f2da 41bd 9739 143d
000001b0: 4bc0 753b 4c06 5c3d 6d4a e9bc ce28 59bd
000001c0: baa4 74bd 9ee4 3fbd dc40 c73c f346 273d
000001d0: 89cd 263d 4194 7ebd 8b85 c2bc 8366 193d
000001e0: efcf d63c dcee 4bbb 86e3 edbc b6d4 963c
000001f0: 5163 1a3b 735d a4bc 4829 8db9 245f 73bc
00000200: f3c6 61bc 1d5d 9fbc 99cf a5bd a2c9 5d3d
00000210: 87d9 973b 04da 10bb 834b 143d 1ed3 243d
00000220: 2ab8 6c3c b0c4 a2bc beb3 813d 34a6 84bc
00000230: e37c 773d 6180 a9bb 09c2 26bd fead a13d
00000240: 4e2a 65bc 3e8d 503d 4802 263d 1e34 02be
00000250: 60ce b0bb 5812 d2ba efe8 2ebd 0b53 2bbd
00000260: 6550 98bc db57 a2bc 4341 eabc 796d efbc
00000270: f81c e23c fae8 d1bc db59 3abc ad35 f13c
00000280: e6ad 5ebd 4055 05be 574b 2d3d 4a82 0abc
00000290: fa3f 31bc 296a 983d 22b5 593c 6325 f5bd
000002a0: 2213 13bd fbce a33d 8963 1c3c e4f0 2e3c
000002b0: 9177 8d3d 866f bf3c 43de 2e3b 7162 283d
000002c0: f07e 8c3c fc1a 8fbc c6ec c93c a591 79bc
000002d0: f092 96bc c951 a13d 1187 0c3d 9705 91bd
000002e0: 8ed3 5c3c 9f8c ff39 3902 5d3b ca5a bf3b
000002f0: 0fd2 893d e34f 21bc 83f8 4c3d 3410 fb3a
00000300: c41d c0bd d98e 313d 00e3 863b cb5d cd3d
00000310: bfed 2b3d 022d 6abd 9a07 913d 70de dbb8
00000320: f438 96bd a9c1 aabd 4bb8 3abb 29d1 24bd
00000330: fa03 103b aff2 9d3b 6526 1bbb 5542 12bd
00000340: e53e e439 efad b3bb c514 2bbc 7465 133d
00000350: abb3 b1bc c6d3 b63a 4975 2cbd 2b0f 3c3d
00000360: 374c 643c 68e5 dfbb 4031 69bd 3234 50bc
00000370: 7f20 f43b a5e2 953b f90f e03d 7519 063c
00000380: 1917 753d 1e93 57bc 81c1 623b 862e 12bd
00000390: 7fdc ec3b 9684 03bc 5a2a 20bd 7360 babd
000003a0: 55ec be3c da23 9e3d 0059 11bd 326e 23bd
000003b0: 9765 333b 296c 423a 4c99 cebb a31f 233b
000003c0: 3566 cf3c 956f 673b 0009 84bd 1bf5 7ebd
000003d0: a6d8 bc3b 0bc5 e0ba 1305 833c ab09 443c
000003e0: 2349 213c c0cf b2b9 2119 0a3c 0a34 483c
000003f0: be5b 233b fab1 4cbd 3905 4abb d058 7bbd

fc3.log_sigma f4 [50, 50]
-5.038408 -5.1139703 -4.408252 -5.020604 -4.825154 -5.0788693 -4.7175603 -5.253536
-5.1587725 -5.124873 -4.936723 -5.206115 -5.0628886 -5.0818624 -5.209086 -4.8405504
-4.8181043 -5.0794625 -5.0933876 -5.1355658 -3.4619832 -4.5491467 -4.796092 -4.96565
-4.4822454 -4.962284 -5.072779 -5.172258 -4.352741 -5.0583196 -4.8943763 -5.1111445
-3.7682772 -5.0168552 -5.0997043 -5.003154 -3.2992177 -4.8824654 -3.9005182 -2.8345675
-4.236276 -4.8405685 -5.0893617 -5.207487 -4.429921 -3.8696077 -4.999528 -4.6974263
-4.1951566 -4.127608 -4.7684555 -4.7163 -4.4960747 -4.9441586 -4.5960517 -4.6878676
-4.575724 -4.781893 -4.7110405 -4.772517 -4.634917 -4.9172983 -4.965465 -4.0163302
-4.8817077 -4.8850822 -4.700901 -4.669117 -4.6322813 -4.7825737 -2.8314404 -4.990573
-4.3555913 -4.8502655 -4.977202 -4.797738 -4.351337 -4.9521933 -4.8327355 -4.755566
-4.9747944 -4.9806976 -4.1227117 -4.820248 -4.9730463 -4.876661 -4.227298 -4.960272
-3.7566845 -3.5996847 -3.6051667 -4.874336 -4.6407213 -4.9126344 -4.2304144 -3.1723616
-4.9863286 -4.991385 -3.9870555 -4.9728117 -5.323792 -5.135811 -4.7352543 -5.026819
-4.5971274 -5.2649446 -4.4828467 -5.419533 -4.9850807 -5.1744475 -5.0032153 -5.2969384
-5.36014 -4.980194 -5.369121 -5.1208096 -4.8996863 -5.1322584 -5.1304293 -5.1111674
-4.158099 -4.7160482 -4.9258714 -5.1710305 -4.9619064 -5.089629 -5.0775146 -5.2637453
-4.3597865 -5.106852 -4.9958034 -5.104444 -4.250713 -5.088503 -5.1644993 -5.2191772
-4.0624394 -4.88577 -4.273684 -4.151246 -4.6014247 -4.8321085 -5.026068 -5.520528
-4.2861667 -4.4791512 -4.990007 -5.089643 -4.3401756 -4.917353 -5.2261705 -5.082452
-4.8876157 -5.3403416 -4.80318 -5.1796083 -4.7474084 -5.1747384 -5.2151527 -5.239914
-5.1717114 -5.1671996 -5.6849766 -4.9934764 -5.3352685 -5.1252003 -5.017349 -5.0704675
-5.079048 -5.2769966 -4.637644 -5.0239234 -4.9008465 -5.2794967 -4.9443264 -4.9820514
-5.128549 -5.377483 -4.21987 -5.2056084 -5.207949 -5.3116393 -4.5238776 -4.8988223
-5.270635 -5.3516383 -4.6289144 -4.9978013 -4.520191 -4.393707 -5.049042 -4.8443747
-5.0318127 -5.3327637 -4.650646 -4.942985 -5.1564436 -5.0147486 -4.5522923 -4.879872
-4.9011555 -4.690748 -4.7467923 -4.950705 -4.5255857 -4.7927585 -4.082503 -4.9213886
-4.8183994 -4.9660387 -5.074786 -5.072278 -5.020945 -4.833891 -4.9968977 -4.9644146
-4.7929525 -4.6947474 -4.820329 -4.3655047 -4.5106144 -4.455509 -4.236341 -5.042731
-4.482889 -4.5714803 -4.6699347 -5.0235662 -3.9529896 -5.0602527 -4.9801264 -4.951823
-4.488585 -4.7227616 -4.9998193 -5.004165 -4.444104 -4.856564 -4.297447 -4.1990333
-4.871168 -4.2023025 -4.7038755 -4.7445 -3.7193608 -4.7846775 -4.759214 -5.1853466
-4.089951 -4.579393 -5.010756 -4.8971415 -4.854407 -4.7995615 -4.80597 -4.623802
00000000: a33a a1c0 a5a5 a3c0 6610 8dc0 caa8 a0c0
00000010: a967 9ac0 1986 a2c0 41f6 96c0 f81c a8c0
00000020: aa14 a5c0 f6fe a3c0 a3f9 9dc0 7e98 a6c0
00000030: 2f03 a2c0 9e9e a2c0 d5b0 a6c0 cae5 9ac0
00000040: e92d 9ac0 f58a a2c0 08fd a2c0 8e56 a4c0
00000050: 2291 5dc0 9c92 91c0 9679 99c0 9be6 9ec0
00000060: 8e6e 8fc0 08cb 9ec0 3554 a2c0 2383 a5c0
00000070: a749 8bc0 c1dd a1c0 bb9e 9cc0 7f8e a3c0
00000080: 742b 71c0 148a a0c0 c730 a3c0 d619 a0c0
00000090: 6226 53c0 283d 9cc0 17a2 79c0 8e69 35c0
000000a0: 938f 87c0 f0e5 9ac0 0ddc a2c0 bca3 a6c0
000000b0: eac1 8dc0 a7a7 77c0 22fc 9fc0 5151 96c0
000000c0: b93e 86c0 5d15 84c0 3097 98c0 eeeb 96c0
000000d0: d8df 8fc0 8c36 9ec0 db12 93c0 0303 96c0
000000e0: 556c 92c0 4405 99c0 d8c0 96c0 76b8 98c0
000000f0: 3d51 94c0 825a 9dc0 17e5 9ec0 c785 80c0
00000100: f336 9cc0 9852 9cc0 c86d 96c0 6869 95c0
00000110: a63b 94c0 d80a 99c0 5236 35c0 c6b2 9fc0
00000120: 0161 8bc0 6035 9bc0 3d45 9fc0 1287 99c0
00000130: 273e 8bc0 5e78 9ec0 c5a5 9ac0 992d 98c0
00000140: 8431 9fc0 e061 9fc0 41ed 83c0 793f 9ac0
00000150: 3223 9fc0 9b0d 9cc0 0646 87c0 8cba 9ec0
00000160: 856d 70c0 3c61 66c0 0dbb 66c0 8ffa 9bc0
00000170: ca80 94c0 4d34 9dc0 8e5f 87c0 f907 4bc0
00000180: 0190 9fc0 6db9 9fc0 eb2b 7fc0 4621 9fc0
00000190: 815c aac0 9058 a4c0 3487 97c0 b4db a0c0
000001a0: ab1b 93c0 6d7a a8c0 7b73 8fc0 d06c adc0
000001b0: c885 9fc0 1395 a5c0 571a a0c0 8580 a9c0
000001c0: 4486 abc0 c05d 9fc0 d7cf abc0 acdd a3c0
000001d0: 3bca 9cc0 763b a4c0 7a2c a4c0 af8e a3c0
000001e0: 260f 85c0 dee9 96c0 bda0 9dc0 1579 a5c0
000001f0: f0c7 9ec0 3ede a2c0 007b a2c0 9a70 a8c0
00000200: 5f83 8bc0 556b a3c0 9fdd 9fc0 9b57 a3c0
00000210: d705 88c0 04d5 a2c0 9443 a5c0 8003 a7c0
00000220: 81ff 81c0 3a58 9cc0 05c2 88c0 02d7 84c0
00000230: df3e 93c0 a2a0 9ac0 8dd5 a0c0 2aa8 b0c0
00000240: 4728 89c0 3555 8fc0 23ae 9fc0 5bde a2c0
00000250: b8e2 8ac0 f55a 9dc0 ca3c a7c0 72a3 a2c0
00000260: 5967 9cc0 14e4 aac0 a7b3 99c0 5abf a5c0
00000270: c5ea 97c0 7597 a5c0 88e2 a6c0 60ad a7c0
00000280: a97e a5c0 b359 a5c0 54eb b5c0 8fca 9fc0
00000290: 85ba aac0 a401 a4c0 1f8e a0c0 4541 a2c0
000002a0: 9087 a2c0 28dd a8c0 9467 94c0 fbc3 a0c0
000002b0: bcd3 9cc0 a3f1 a8c0 ec37 9ec0 f76c 9fc0
000002c0: 131d a4c0 5714 acc0 2d09 87c0 5894 a6c0
000002d0: 85a7 a6c0 f3f8 a9c0 9bc3 90c0 27c3 9cc0
000002e0: 0ba9 a8c0 9f40 abc0 1120 94c0 fded 9fc0
000002f0: 68a5 90c0 3f99 8cc0 c191 a1c0 1e05 9bc0
00000300: 9c04 a1c0 00a6 aac0 18d2 94c0 ef2c 9ec0
00000310: 9601 a5c0 d278 a0c0 61ac 91c0 e927 9cc0
00000320: 44d6 9cc0 9c1a 96c0 b9e5 97c0 2d6c 9ec0
00000330: 99d1 90c0 475e 99c0 dda3 82c0 047c 9dc0
00000340: 5430 9ac0 cae9 9ec0 a664 a2c0 1a50 a2c0
00000350: 95ab a0c0 3caf 9ac0 96e6 9fc0 7cdc 9ec0
00000360: de5f 99c0 5f3b 96c0 2340 9ac0 37b2 8bc0
00000370: f456 90c0 8893 8ec0 1b90 87c0 0d5e a1c0
00000380: d473 8fc0 9149 92c0 1b70 95c0 0ec1 a0c0
00000390: c8fd 7cc0 97ed a1c0 325d 9fc0 5675 9ec0
000003a0: 7da2 8fc0 dd20 97c0 85fe 9fc0 1f22 a0c0
000003b0: 1a36 8ec0 f968 9bc0 b084 89c0 7b5e 86c0
000003c0: 9ce0 9bc0 4379 86c0 2686 96c0 f2d2 97c0
000003d0: 020a 6ec0 141c 99c0 7b4b 98c0 5cee a5c0
000003e0: e1e0 82c0 638a 92c0 1d58 a0c0 62b5 9cc0
000003f0: 4d57 9bc0 0296 99c0 82ca 99c0 30f6 93c0

fc3.bias f4 [1, 50]
0.29634365 -0.0026444595 0.6702103 0.47647873 0.10242049 -0.1635328 0.4309228 0.26944008
0.21332082 -0.10822411 0.3280564 0.4699494 0.20705596 0.22027898 0.27080673 0.09460984
-0.019064594 -0.13521548 0.26599523 0.03621693 0.028905278 0.42697716 0.2709721 0.05570019
-0.031637546 -0.10742089 0.31947953 -0.059168596 0.6763339 0.13923086 0.35922316 0.12560958
0.1910004 0.15419182 -0.039654795 -0.02079628 0.36245272 0.3744305 -0.118258506 1.0494207
0.12501654 -0.05256318 0.21921265 0.09138186 0.07925284 0.30896974 0.20856279 -0.09015916
0.10544494 0.26626927
00000000: 5bba 973e ab4e 2dbb e792 2b3f 05f5 f33e
00000010: d5c1 d13d 2475 27be eaa1 dc3e 0df4 893e
00000020: c670 5a3e 9aa4 ddbd 02f7 a73e 359d f03e
00000030: 7a06 543e d090 613e 2ea7 8a3e cec2 c13d
00000040: 5a2d 9cbc ed75 0abe 8730 883e 3458 143d
00000050: c3ca ec3c c09c da3e dbbc 8a3e e225 643d
00000060: 5f96 01bd 7cff dbbd d292 a33e c55a 72bd
00000070: 3824 2d3f 8992 0e3e 19ec b73e cc9f 003e
00000080: 9c95 433e 76e4 1d3e 116d 22bd f65c aabc
00000090: 6793 b93e 5bb5 bf3e 8431 f2bd 6b53 863f
000000a0: 5604 003e 7d4c 57bd 4879 603e 6a26 bb3d
000000b0: 504f a23d 4831 9e3e 7c91 553e 5ea5 b8bd
000000c0: 84f3 d73d 7254 883e

fc4.mu f4 [6, 50]
-0.034438923 -0.060660146 -0.069888026 -0.101391695 -0.029676735 -0.011327449 0.063131824 -0.017902525
-0.09708934 0.024493609 0.05995752 0.030084528 0.016725952 0.004577023 0.04367373 0.020949723
-0.028686602 0.0056232545 0.04158055 0.009638252 -0.021878522 -0.18134163 0.030816553 -0.044429295
-0.016449075 -0.0023525858 0.0062990836 0.011220178 -0.21396531 -0.04919807 -0.0370889 -0.010213922
-0.018060124 0.03547162 -0.0007019195 -0.06888217 0.0075643295 0.0069147567 0.0008122132 -0.07456605
-0.0026166148 -0.00093486457 0.03666366 -0.0017146618 -0.018331066 0.01734887 0.035945278 0.012855671
0.00996691 0.061265703 0.0125383 0.0016048714 0.01377544 0.019725181 -0.06976141 -0.011693513
0.0010504127 -0.04778449 0.02465885 -0.010823787 0.041087985 0.026478373 0.0089769 -0.009874842
0.023053654 0.032830555 -0.013392922 -0.017031653 0.044071052 0.029237255 -0.023185248 0.019635018
-0.045379676 0.028990682 0.04366266 -0.015294176 0.017224181 -0.000779676 0.013992773 -0.028332157
-0.028350791 -0.02850453 -0.025980756 -0.020650297 0.015375782 -0.021636719 -0.0043471255 0.018400144
0.018795943 0.06017404 -0.016768327 0.005135767 0.06634456 0.024112642 -0.04305297 0.0052290843
0.043108784 0.012849227 -0.03244443 0.04950603 -0.02291187 0.0052553336 -0.024229532 0.0022813324
-0.0074535306 -0.027059147 -0.022274103 -0.013870563 0.027198983 -0.004296959 -0.061351977 -0.06952235
-0.023162507 -0.0075672013 -0.011528277 -0.050925344 0.04030901 0.0050859293 0.0023268403 -0.058670808
0.049836896 0.017039312 -0.016225092 0.05129962 -0.04958161 0.013074561 -0.004958936 -0.0029095188
0.028222408 0.02070471 -0.031486426 0.009877141 0.004069841 -0.016847005 -0.0043842564 0.0032997462
-0.05235393 -0.0065666162 -0.0022977297 -0.044702064 -0.012252667 -0.011828912 -0.010785367 -0.06135283
-0.019520324 0.024797175 -0.023519788 0.044476595 -0.003584273 -0.06406628 0.025226105 0.0127975885
0.04298212 0.057464477 -0.0115651535 0.015248495 0.010278401 0.022324707 -0.07471875 -0.02347428
-0.006477339 0.0012086962 0.024198359 0.009581385 -0.042176865 0.028969156 -0.027495764 0.0059792455
-0.05924778 0.023406198 -0.04743426 -0.04247622 -0.06849748 0.070507795 0.03008438 -0.018924367
0.0022516365 -0.010152244 0.043790903 -0.015508672 0.042922057 -0.018427758 -0.013995091 0.027966969
-0.011320966 -0.07158746 0.0250274 0.03477413 -0.003614297 -0.03082264 -0.027086142 0.0007440609
-0.051529404 0.007394701 0.008886849 -0.3057584 0.019566795 -0.013606193 0.0056421002 0.01602943
0.023593536 0.021759808 0.017805507 -0.01979733 -0.022898648 -0.025317516 0.01668468 -0.038109466
0.046379086 -0.008997495 -0.008907297 0.031338222 0.0005743459 0.030162603 0.031895936 0.014147865
-0.008871005 0.039958786 -0.017467776 0.028686197 -0.01713264 0.005685989 -0.045913555 -0.01142312
0.021101762 -0.0006002076 0.026185784 0.0058997823 0.042176448 -0.025063757 -0.029099237 0.022135124
0.0034490179 -0.048899405 0.005307783 -0.0050828285 0.047263525 0.019033277 0.0038509795 0.07791675
-0.019011794 0.01428233 -0.021790491 -0.017799683 -0.055272453 0.00991968 0.015525112 -0.12002889
-0.01813399 -0.037805997 -0.024721095 -0.008172059 -0.037582047 -0.019823203 -0.039371677 0.004242621
00000000: d40f 0dbd c676 78bd 7421 8fbd 73a6 cfbd
00000010: a01c f3bc c496 39bc 424b 813d 51a8 92bc
00000020: c7d6 c6bd d2a6 c83c 0496 753d d473 f63c
00000030: dd04 893c dafa 953b 3ae3 323d c19e ab3c
00000040: 2a00 ebbc 4743 b83b 5e50 2a3d c2e9 1d3c
00000050: 963a b3bc 9fb1 39be ff72 fc3c 7efb 35bd
00000060: 36c0 86bc d72d 1abb 8b68 ce3b d6d4 373c
00000070: b919 5bbe ea83 49bd 88ea 17bd 4b58 27bc
00000080: d3f2 93bc b04a 113d 0501 38ba 1812 8dbd
00000090: 32de f73b 2f95 e23b b5ea 543a 16b6 98bd
000000a0: 837b 2bbb b311 75ba a22c 163d 81be e0ba
000000b0: 082b 96bc 381f 8e3c 5b3b 133d 98a0 523c
000000c0: 404c 233c bff1 7a3d 716d 4d3c 8c5a d23a
000000d0: 62b2 613c b496 a13c 12df 8ebd 2696 3fbc
000000e0: 00ae 893a abb9 43bd 5b01 ca3c 4156 31bc
000000f0: e04b 283d 2ce9 d83c d913 133c 17ca 21bc
00000100: 04db bc3c 5579 063d fc6d 5bbc f785 8bbc
00000110: d983 343d f882 ef3c fdee bdbc 9ed9 a03c
00000120: 0ae0 39bd de7d ed3c 9ed7 323d 6c94 7abc
00000130: ba19 8d3c 2c63 4cba f241 653c d718 e8bc
00000140: eb3f e8bc 5582 e9bc 98d5 d4bc d02a a9bc
00000150: b4ea 7b3c 7d3f b1bc 5572 8ebb e6bb 963c
00000160: f3f9 993c 0e79 763d bb5d 89bc f049 a83b
00000170: a8df 873d e087 c53c 5058 30bd bd58 ab3b
00000180: d692 303d 9085 523c 73e4 04bd d6c6 4a3d
00000190: adb1 bbbc ef34 ac3b 037d c6bc 6882 153b
000001a0: bf3c f4bb 25ab ddbc 2e78 b6bc 5c41 63bc
000001b0: 67d0 de3c 81cd 8cbb 364c 7bbd bc61 8ebd
000001c0: 4cbf bdbc 49f6 f7bb 19e1 3cbc 1897 50bd
000001d0: 0f1b 253d dea7 a63b e77d 183b cd50 70bd
000001e0: c621 4c3d 0796 8b3c 7cea 84bc 8d1f 523d
000001f0: 1616 4bbd af36 563c 927e a2bb a0ad 3ebb
00000200: ae32 e73c ed9c a93c e9f7 00bd bbd3 213c
00000210: 4d5c 853b bb02 8abc cfa9 8fbb 8e40 583b
00000220: 1371 56bd c52c d7bb 8295 16bb 8319 37bd
00000230: 69bf 48bc 0ece 41bc 1cb5 30bc 1b4d 7bbd
00000240: 16e9 9fbc 7223 cb3c 92ac c0bc 172d 363d
00000250: 1fe6 6abb 2f35 83bd faa6 ce3c faac 513c
00000260: 050e 303d df5f 6b3d c57b 3dbc d3d4 793c
00000270: bd66 283c 4ee2 b63c 2506 99bd 224d c0bc
00000280: dc3f d4bb 1d6d 9e3a a33b c63c 3efb 1c3c
00000290: a6c1 2cbd b950 ed3c cc3e e1bc 8ced c33b
000002a0: cdad 72bd 5bbe bf3c 6d4a 42bd 8bfb 2dbd
000002b0: 6848 8cbd 6466 903d 8573 f63c 4607 9bbc
000002c0: 3190 133b 9955 26bc 175e 333d 1618 7ebc
000002d0: 0acf 2f3d cff5 96bc ab4b 65bc fc1a e53c
000002e0: 937b 39bc 729c 92bd 4306 cd3c 516f 0e3d
000002f0: d7dd 6cbb c37f fcbc c2e3 ddbc 150d 433a
00000300: 7f10 53bd 3f4f f23b 259a 113c 5d8c 9cbe
00000310: 8b4a a03c 82ec 5ebc 5ee1 b83b 2750 833c
00000320: 3b47 c13c a041 b23c dbdc 913c 032e a2bc
00000330: f295 bbbc ae66 cfbc 4fae 883c ac18 1cbd
00000340: fff7 3d3d 3b6a 13bc e9ef 11bc 825c 003d
00000350: b38f 163a 9017 f73c 50a5 023d 72cc 673c
00000360: b157 11bc d3ab 233d 9518 8fbc 51ff ea3c
00000370: c059 8cbc 8851 ba3b da0f 3cbd 0a28 3bbc
00000380: 9add ac3c 4057 1dba 9283 d63c f652 c13b
00000390: 36c1 2c3d 8252 cdbc 8661 eebc b854 b53c
000003a0: eb08 623b be4a 48bd e9ec ad3b db8d a6bb
000003b0: 6697 413d adeb 9b3c b760 7c3b d192 9f3d
000003c0: 9fbe 9bbc 6f00 6a3c f981 b2bc a4d0 91bc
000003d0: 5e65 62bd 2786 223c 0a5d 7e3c b5d1 f5bd
000003e0: bc8d 94bc 76da 1abd e583 cabc 1ae4 05bc
000003f0: a2ef 19bd 4564 a2bc 3244 21bd af05 8b3b
